FoundationalModels/2gram.pth (torch, 56762 bytes, 5 tensors)

embeddings.weight f4 [79, 10]
1.0122219 1.5754192 -0.87123305 -1.340382 -1.7055805 -0.19610116 -1.3236821 2.2808487
0.32360423 0.36963534 -0.33553454 0.028099127 1.2896417 0.8428917 -0.41852102 0.22565778
0.07407086 -0.61045253 0.67766595 -1.3234242 0.20700203 -0.23443732 -0.8879183 -0.69958913
0.067000754 0.39814413 -2.0070682 -1.1389782 1.5930961 2.6358216 -0.52499855 1.0434551
0.36756518 -0.4678755 -1.138311 -2.5705786 -0.36678204 1.7639177 0.48693153 -0.44639218
-0.8208006 -0.82220656 0.5994968 -0.54365885 -1.1902105 -0.26899973 -1.1355561 -0.6098577
-0.35364807 1.292018 0.82297003 1.5994699 0.58904874 -0.3321673 1.2137424 -0.18724
-0.07963881 -0.7620496 -0.87042487 -1.8847775 0.30729586 0.16648448 1.4325619 -0.44045046
0.894112 -0.0027539472 1.210951 0.6738023 0.37612656 0.24232414 -1.7050539 1.2602004
0.32706922 0.33061033 -0.9618539 0.4950784 1.6180935 -0.08613928 0.9314765 -0.39401814
1.4383323 0.7029977 -0.054686673 -0.45555022 0.88343436 1.3189272 -0.8812105 1.2730273
-0.5536052 -0.5780332 -0.42243132 -1.758153 -2.2801878 -1.9157087 -1.7395885 1.8804781
-2.2892725 -0.8957747 -1.2298622 -1.3325362 0.60276586 -0.4218834 0.6600917 0.17122331
0.9659218 -0.8713107 0.7318539 0.7845836 0.37479228 -0.008886192 -0.37513962 -1.2772526
-0.90212256 0.67725337 -0.71601653 0.3984008 0.060015004 -0.28192276 -2.4892497 0.8024988
0.9033933 -0.56243676 -1.7086723 -0.5286157 0.99698204 0.37876195 -0.1928098 1.3995086
-0.6547943 0.15427487 -0.33066568 -0.065654844 -0.61731374 3.8357973 -0.406302 0.07983952
-0.14388938 0.49977684 -0.5155993 -0.7391898 -0.014447792 1.315058 0.48782334 0.14028455
1.1210059 -1.0687264 0.9692456 -0.7427534 0.9721387 0.9231672 -0.69043213 -0.14788434
0.21118593 0.04317373 0.22275643 0.7994353 0.7082531 -1.2724797 -1.2871221 1.2839239
0.6443183 0.36739153 0.36871806 1.5710531 -0.37410396 0.031027256 1.4083798 -0.5755077
-1.0080572 -0.46500894 -0.23525052 0.99925023 -0.7473868 0.89568526 -0.2371538 0.55307984
-1.5329721 -0.9074437 1.6090188 -0.9529072 0.15122941 -1.5907303 -0.17386432 0.21443142
-0.036551718 -0.36689746 -0.20502494 0.23412307 -0.07431894 0.2646913 1.733117 -0.46069947
0.17000502 1.2321658 -0.9087052 0.25947255 -0.52370024 0.7532077 -1.1358337 -0.79293823
-0.040537972 0.2890156 -0.05795673 0.9610319 0.60538894 0.2531392 1.1312032 -1.0740626
0.03688888 -1.3931186 -0.53583944 1.1091183 -2.0293603 0.49831378 -1.1873009 1.2168013
1.1420826 0.14119065 2.1419296 -1.2010485 0.97888035 1.0902511 -0.33532307 -0.6866751
0.12440225 1.219548 -1.3933103 -0.70797354 0.91075385 -0.9400987 0.32502407 -0.7701357
0.39708337 -0.21387501 0.19449098 -0.13364154 -1.3081208 -0.55822307 -1.5545906 -1.8559903
-2.2942135 1.6240163 -0.044017695 1.5567749 -0.18283251 0.62057364 -0.6401427 0.5297712
-1.8856027 0.8635938 -0.96176606 0.5160764 -0.47035274 0.2717281 -0.55194265 1.7336972
00000000: 7d90 813f 56a7 c93f 2109 5fbf a391 abbf
00000010: 7650 dabf bece 48be 6a6e a9bf 6df9 1140
00000020: 74af a53e d840 bd3e 2fcb abbe 2430 e63c
00000030: fb12 a53f c0c7 573f 6348 d6be d512 673e
00000040: 77b2 973d 9e46 1cbf 847b 2d3f f765 a9bf
00000050: 57f8 533e 5610 70be 9d4e 63bf 4618 33bf
00000060: b137 893d 8cd9 cb3e ce73 00c0 0aca 91bf
00000070: 93ea cb3f 4db1 2840 4e66 06bf f08f 853f
00000080: 8131 bc3e 618d efbe 2db4 91bf 5c84 24c0
00000090: dbca bbbe 0ec8 e13f 174f f93e 848d e4be
000000a0: fd1f 52bf 217c 52bf 9f78 193f 3a2d 0bbf
000000b0: d158 98bf 55ba 89be e759 91bf a21f 1cbf
000000c0: 5c11 b5be d960 a53f 2aae 523f 6ebb cc3f
000000d0: e6cb 163f d511 aabe e95b 9b3f d8bb 3fbe
000000e0: ac19 a3bd af15 43bf 2ad4 5ebf 6440 f1bf
000000f0: e255 9d3e e87a 2a3e 305e b73f b982 e1be
00000100: 86e4 643f 917b 34bb 7100 9b3f 4f7e 2c3f
00000110: a993 c03e d223 783e 353f dabf 3f4e a13f
00000120: 9e75 a73e c245 a93e 0f3c 76bf eb7a fd3e
00000130: b01d cf3f ca69 b0bd 3e75 6e3f bfbc c9be
00000140: 461b b83f a8f7 333f 22ff 5fbd e13d e9be
00000150: c128 623f 9bd2 a83f 0397 61bf 8ff2 a23f
00000160: 12b9 0dbf fcf9 13bf eb48 d8be 280b e1bf
00000170: 99ee 11c0 f135 f5bf d6aa debf 82b3 f03f
00000180: 7183 12c0 7e51 65bf 206c 9dbf 8c90 aabf
00000190: dd4e 1a3f 1a01 d8be c5fb 283f 2a55 2f3e
000001a0: a746 773f 380e 5fbf c75a 3b3f 79da 483f
000001b0: c6e4 bf3e 6497 11bc 4d12 c0be 037d a3bf
000001c0: 81f1 66bf 7a60 2d3f dc4c 37bf 31fb cb3e
000001d0: 4bd2 753d 2e58 90be de4f 1fc0 9070 4d3f
000001e0: c944 673f dbfb 0fbf c6b5 dabf 5c53 07bf
000001f0: 373a 7f3f 16ed c13e ef6f 45be 1923 b33f
00000200: 99a0 27bf 3bfa 1d3e 034d a9be 0c76 86bd
00000210: 4608 1ebf b47d 7540 d106 d0be e782 a33d
00000220: bd57 13be c0e2 ff3e 51fe 03bf 8b3b 3dbf
00000230: 6fb6 6cbc d253 a83f fbc3 f93e c1a6 0f3e
00000240: 1f7d 8f3f 07cc 88bf 7b20 783f 1625 3ebf
00000250: 15de 783f b054 6c3f 29c0 30bf fe6e 17be
00000260: 2041 583e f0d6 303d 431a 643e cba7 4c3f
00000270: 1350 353f 9de0 a2bf 6bc0 a4bf 9e57 a43f
00000280: 0bf2 243f be1a bc3e 9dc8 bc3e 4518 c93f
00000290: 8e8a bfbe df2c fe3c ca45 b43f 7954 13bf
000002a0: 0508 81bf a715 eebe 83e5 70be ddce 7f3f
000002b0: be54 3fbf a14b 653f 72d8 72be a496 0d3f
000002c0: 6e38 c4bf 3b4e 68bf 54f4 cd3f baf1 73bf
000002d0: e2db 1a3e 0d9d cbbf 7d09 32be e993 5b3e
000002e0: 41b7 15bd fcd9 bbbe 0ff2 51be f5bd 6f3e
000002f0: 8734 98bd 9e85 873e c7d6 dd3f cde0 ebbe
00000300: cc15 2e3e 9cb7 9d3f e7a0 68bf 96d9 843e
00000310: 3811 06bf 38d2 403f 0063 91bf 00fe 4abf
00000320: 250b 26bd daf9 933e 0964 6dbd 3006 763f
00000330: c5fa 1a3f 769b 813e 44cb 903f e27a 89bf
00000340: cb18 173d b651 b2bf c62c 09bf 97f7 8d3f
00000350: 0ae1 01c0 fc22 ff3e 7af9 97bf 25c0 9b3f
00000360: c32f 923f 4894 103e 6015 0940 f5bb 99bf
00000370: e797 7a3f 598d 8b3f 77af abbe f0c9 2fbf
00000380: 9bc6 fe3d 261a 9c3f fe57 b2bf c13d 35bf
00000390: 2a27 693f 4faa 70bf 8e69 a63e 9d27 45bf
000003a0: 834e cb3e 0d02 5bbe a528 473e 54d9 08be
000003b0: 8170 a7bf b5e7 0ebf d3fc c6bf 1791 edbf
000003c0: 65d4 12c0 c4df cf3f e64b 34bd 6644 c73f
000003d0: 7238 3bbe eadd 1e3f 64e0 23bf 169f 073f
000003e0: 6e5b f1bf 7c14 5d3f 4d36 76bf 951d 043f
000003f0: 13d2 f0be f21f 8b3e 1d4c 0dbf cae9 dd3f

linear1.weight f4 [128, 20]
0.10737521 0.09972804 -0.22840065 0.15687737 0.21810131 0.29180738 -0.116281524 -0.078701526
0.33305928 0.08710718 0.04080661 -0.33432606 -0.2817715 0.07144718 -0.33877745 0.18775263
-0.22782563 -0.2077016 -0.19834681 -0.14617063 0.009388389 0.24763785 0.18737486 -0.24464826
-0.0041491077 -0.2432408 0.055059206 0.2803592 0.20393172 -0.2195552 -0.018765396 -0.17107144
-0.21996818 -0.11018742 0.015892996 -0.2989259 -0.058480117 0.037978996 0.060593974 0.018392053
0.032915004 -0.017560566 -0.11863349 0.30736592 -0.08697872 -0.0053880806 0.10121179 -0.0017160912
-0.39960995 0.23046987 0.14768113 0.18182693 0.13759498 0.095541514 0.08340086 0.044071764
-0.27190605 -0.26404372 0.28947294 0.3563844 -0.32153988 -0.23158377 0.24680066 0.09621975
-0.16735256 0.11651477 -0.2181961 -0.18829517 -0.090088196 -0.16846676 -0.120996036 0.23637058
-0.12573192 -0.07856198 0.20607544 0.2735406 -0.08654805 0.2747586 0.31123543 -0.03900221
-0.04582278 -0.41266227 -0.21533258 -0.19525446 -0.1565495 -0.11718073 -0.044440344 -0.26798934
0.18554631 -0.31046206 0.19133551 -0.22006218 0.037211504 -0.11257409 -0.08219048 0.21476692
-0.13724805 0.011826591 0.28347415 -0.18245827 0.15345547 0.27086273 0.028624108 -0.11285003
-0.23058505 -0.18411128 0.22660948 0.109482385 0.15371801 -0.21470104 -0.09847972 -0.3430612
-0.21221472 0.20135416 0.16365682 -0.18749967 -0.229186 -0.0917033 0.3001822 -0.069544874
0.18445571 0.08194 -0.10301437 -0.21952224 -0.18733469 -0.23412849 -0.03221436 0.046771087
0.25264594 0.039505135 -0.060995113 -0.10917941 0.014369425 -0.09207638 -0.26385313 0.169597
-0.24181975 -0.22715539 0.22026531 -0.29566354 0.03609052 0.15592664 -0.21503073 -0.02586302
-0.06398494 -0.007804315 0.13595906 0.31066242 0.19045968 -0.15927613 -0.22357579 -0.1648783
0.061064534 -0.21616909 0.03041465 0.1779095 -0.008961329 0.000653099 0.16147022 0.16978987
0.25101417 -0.20774166 0.06796662 -0.098673396 0.04557732 0.23596792 -0.23870005 -0.017692693
-0.06540047 -0.20819268 0.015612462 0.14835238 0.1843663 -0.019302577 -0.20371662 0.14814425
0.013775514 -0.15444958 -0.09730489 -0.25013137 0.23816465 -0.07943242 -0.1801068 -0.022915956
-0.026432803 0.22603697 0.23696573 0.28205508 -0.11379597 0.15155804 0.02054862 0.15990259
0.07897654 -0.050974358 0.14304808 0.2561292 -0.15406567 -0.27012354 0.046971284 0.21789391
0.221718 -0.028359912 -0.05396722 -0.3550923 -0.15862337 -0.3193355 0.0493089 0.14183211
0.039824143 -0.15894687 -0.060093727 -0.12721188 0.040990453 -0.057128035 -0.054192126 -0.27578163
0.028745672 0.1402349 0.22354694 -0.116754636 0.010815353 -0.2129692 0.117209576 -0.19586435
-0.36388648 -0.38433316 -0.025157627 0.25648 0.175737 0.3189486 0.100428596 0.07081853
-0.096147984 0.20550142 -0.24923418 0.17310297 -0.24632274 -0.38330963 0.22914575 -0.22547346
-0.27676904 -0.03342209 0.032132976 0.0995 -0.1380974 0.073615536 -0.10115188 0.10038407
0.24777302 0.21378542 -0.090024315 -0.10288687 0.15184112 0.09395501 0.10918565 0.113828436
00000000: 89e7 db3d 373e cc3d dce1 69be 76a4 203e
00000010: f355 5f3e c767 953e 0225 eebd 442e a1bd
00000020: bf86 aa3e 4065 b23d d524 273d c92c abbe
00000030: 5b44 90be e652 923d 3d74 adbe 3a42 403e
00000040: 1f4b 69be baaf 54be 6d1b 4bbe c1ad 15be
00000050: c2d1 193c c794 7d3e 32df 3f3e 1385 7abe
00000060: 3df5 87bb 1e14 79be c385 613d 3e8b 8f3e
00000070: 7ad3 503e 14d3 60be e3b9 99bc 5a2d 2fbe
00000080: 573f 61be f1a9 e1bd 0732 823c d10c 99be
00000090: d988 6fbd dd8f 1b3d 6331 783d eeaa 963c
000000a0: e2d1 063d 2ddb 8fbc 1df6 f2bd 115f 9d3e
000000b0: e621 b2bd 7f8e b0bb 2148 cf3d 77ee e0ba
000000c0: ad99 ccbe 4b00 6c3e b939 173e d730 3a3e
000000d0: b3e5 0c3e 45ab c33d 12ce aa3d 9884 343d
000000e0: 4537 8bbe bd30 87be cc35 943e 0478 b63e
000000f0: e0a0 a4be 4c24 6dbe 50b9 7c3e dc0e c53d
00000100: 785e 2bbe 4c9f ee3d cc6e 5fbe 73d0 40be
00000110: 2980 b8bd 8d82 2cbe c5cc f7bd 210b 723e
00000120: debf 00be 1ae5 a0bd 7105 533e 830d 8c3e
00000130: 1b40 b1bd 29ad 8c3e 405a 9f3e c8c0 1fbd
00000140: abb0 3bbd 7848 d3be 2580 5cbe c9f0 47be
00000150: 834e 20be 73fc efbd 1407 36bd e635 89be
00000160: daff 3d3e e2f4 9ebe 75ed 433e fb57 61be
00000170: 176b 183d 3f8d e6bd 7b53 a8bd dceb 5b3e
00000180: c18a 0cbe 51c4 413c 8623 913e 57d6 3abe
00000190: 6e23 1d3e 85ae 8a3e 1b7d ea3c eb1d e7bd
000001a0: 7d1e 6cbe ab87 3cbe 510c 683e 4d38 e03d
000001b0: 4168 1d3e 97da 5bbe bcaf c9bd b8a5 afbe
000001c0: d14e 59be c92f 4e3e a795 273e eaff 3fbe
000001d0: bcaf 6abe f1ce bbbd 7bb1 993e 8b6d 8ebd
000001e0: f5e1 3c3e 29d0 a73d 33f9 d2bd 70ca 60be
000001f0: aad4 3fbe 61bf 6fbe 34f3 03bd 0a93 3f3d
00000200: cf5a 813e 23d0 213d 03d6 79bd 7499 dfbd
00000210: bd6d 6b3c 8b92 bcbd c217 87be d6aa 2d3e
00000220: 999f 77be 6c9b 68be 3b8d 613e 3661 97be
00000230: a7d3 133d 3cab 1f3e 0431 5cbe afde d3bc
00000240: 890a 83bd 57bb ffbb da38 0b3e 250f 9f3e
00000250: dd07 433e 4819 23be 0df1 64be dbd5 28be
00000260: ce1e 7a3d 6e5b 5dbe 2528 f93c e82d 363e
00000270: 8ad2 12bc bb34 2b3a 7358 253e 65dd 2d3e
00000280: ee84 803e 3bba 54be 1532 8b3d 4715 cabd
00000290: 49af 3a3d 93a1 713e c96d 74be 44f0 90bc
000002a0: aef0 85bd 7630 55be 69cb 7f3c b0e9 173e
000002b0: 85ca 3c3e 7020 9ebc 179b 50be 20b3 173e
000002c0: b2b2 613c 0828 1ebe c947 c7bd 3811 80be
000002d0: 6fe1 733e 77ad a2bd eb6d 38be 3eba bbbc
000002e0: 9b89 d8bc 3c76 673e 25a7 723e 8669 903e
000002f0: dd0d e9bd 0832 1b3e 9455 a83c 81bd 233e
00000300: 74be a13d 7dca 50bd 327b 123e 5e23 833e
00000310: 64c3 1dbe a24d 8abe f664 403d 951f 5f3e
00000320: 0b0a 633e 0c53 e8bc bb0c 5dbd a8ce b5be
00000330: 2a6e 22be f17f a3be 21f8 493d 703c 113e
00000340: a41e 233d f8c2 22be d724 76bd d543 02be
00000350: 9be5 273d 16ff 69bd 90f8 5dbd 4033 8dbe
00000360: 0b7c eb3c bd99 0f3e 7de9 643e 0e1d efbd
00000370: e132 313c 9914 5abe 930b f03d aa90 48be
00000380: 544f babe 51c7 c4be 5e17 cebc 5951 833e
00000390: 66f4 333e 3b4d a33e 82ad cd3d 4e09 913d
000003a0: 3ce9 c4bd f76e 523e 3f37 7fbe e841 313e
000003b0: 073c 7cbe 2941 c4be 2fa5 6a3e 84e2 66be
000003c0: acb4 8dbe 9ae5 08bd de9d 033d a8c6 cb3d
000003d0: 6869 0dbe bec3 963d b828 cfbd 2a96 cd3d
000003e0: 36b8 7d3e 91ea 5a3e ab5e b8bd 5ab6 d2bd
000003f0: 3d7c 1b3e 7c6b c03d ba9c df3d e21e e93d

linear1.bias f4 [128]
0.0035850697 0.025399446 0.14859474 0.07805502 0.25557438 -0.032401893 0.029784027 0.118016936
0.012338753 0.117015004 0.22309947 0.061007958 0.13252051 0.18352105 0.074645534 -0.055767417
-0.082682475 0.37780294 0.098292604 0.11625991 0.19066234 0.20675495 0.33993202 0.10598045
0.19907859 0.11544849 0.26422453 -0.14796439 0.23989755 0.21695982 0.31428713 0.15421946
-0.013240421 0.17417733 0.1920055 0.15080397 -0.09310168 0.2039048 0.36058173 0.15629633
0.11687077 0.18548684 0.115059204 0.17395715 0.15462004 0.2450371 0.07248834 -0.121114716
-0.052104373 0.3009336 0.039431646 0.15121464 0.027195187 0.026215523 -0.109953105 0.28696626
0.13133848 0.13676114 0.18330875 0.19743349 0.14895117 0.26745966 0.20463684 0.020670034
0.025137203 0.11381338 0.3107474 0.009467216 0.26930863 0.20486553 -0.01579574 0.30554458
0.15007183 0.15661615 0.16220418 0.26743916 0.20801854 0.026940718 0.080876626 -0.038110707
0.223449 0.114976846 0.18531743 0.35157222 0.26722348 -0.02159439 -0.055005364 0.032331675
0.07211495 0.020229781 0.19470607 0.15699705 -0.044549268 0.27726823 0.24578352 0.11601813
0.25306466 0.2924978 -0.04967536 -0.1323563 0.17318676 0.39560747 0.042989913 -0.11542077
-0.020698562 0.05693919 -0.11447394 -0.11510818 0.22976631 0.14035243 0.29962328 -0.114184685
0.1212089 0.14171469 -0.045185585 -0.043651674 0.19284327 -0.10884815 -0.1206989 0.28168246
0.009113265 0.2517154 0.33596402 0.22463545 -0.03142031 0.15735123 0.20409516 0.04568612
00000000: 7df3 6a3b 8012 d03c 3829 183e 4fdb 9f3d
00000010: a5da 823e d9b7 04bd a2fd f33c ddb2 f13d
00000020: 7b28 4a3c 90a5 ef3d 3074 643e 7be3 793d
00000030: 75b3 073e f1ec 3b3e c2df 983d 606c 64bd
00000040: 6e55 a9bd 636f c13e a24d c93d ad19 ee3d
00000050: fd3c 433e 92b7 533e 920b ae3e 470c d93d
00000060: 42db 4b3e 4270 ec3d 7048 873e fa83 17be
00000070: b4a7 753e b72a 5e3e 3eea a03e b5eb 1d3e
00000080: 5aee 58bc 8b5b 323e 179d 443e 5b6c 1a3e
00000090: 18ac bebd 6bcc 503e 2b9e b83e 250c 203e
000000a0: f159 ef3d 43f0 3d3e 29a4 eb3d d321 323e
000000b0: b754 1e3e 01eb 7a3e c474 943d fe0a f8bd
000000c0: 656b 55bd f813 9a3e 1483 213d 03d8 1a3e
000000d0: 71c8 de3c f0c1 d63c 182f e1bd 3eed 923e
000000e0: 987d 063e 1d0b 0c3e 4ab5 3b3e 012c 4a3e
000000f0: a886 183e 79f0 883e 528c 513e 3454 a93c
00000100: 89ec cd3c fd16 e93d 491a 9f3e 621c 1b3c
00000110: d2e2 893e 45c8 513e 1166 81bc 5770 9c3e
00000120: 6eac 193e fc5f 203e da18 263e c9ed 883e
00000130: d002 553e c8b2 dc3c a5a2 a53d f919 1cbd
00000140: d1cf 643e fb78 eb3d dac3 3d3e 4601 b43e
00000150: 84d1 883e b8e6 b0bc 4e4d 61bd 386e 043d
00000160: 01b1 933d edb8 a53c 0761 473e d6c3 203e
00000170: 4b79 36bd 1af6 8d3e adae 7b3e ea9a ed3d
00000180: b191 813e 46c2 953e 6478 4bbd 6988 07be
00000190: df57 313e 108d ca3e 3116 303d ba61 ecbd
000001a0: 0890 a9bc 1139 693d 5071 eabd d6bd ebbd
000001b0: dc47 6b3e 8cb8 0f3e 3968 993e a9d9 e9bd
000001c0: 5f3c f83d a81d 113e 8514 39bd 19cc 32bd
000001d0: b578 453e c7eb debd fc30 f7bd af38 903e
000001e0: ce4f 153c d7e0 803e 7a03 ac3e d606 663e
000001f0: 95b2 00bd ae20 213e 52fe 503e 5e21 3b3d

linear2.weight f4 [79, 128]
-0.1025162 0.42661163 -0.04947167 -0.19005165 0.010596844 0.36976203 0.17425339 0.012766806
0.04548529 -0.06215139 0.4046233 0.26604968 -0.08912976 0.021874076 -0.1167062 0.46714637
0.016397143 -0.12874523 -0.032349776 -0.04790167 -0.093997344 0.14875704 0.64990264 0.42470938
-0.091677755 -0.2265407 0.1062654 -0.12909603 -0.16009116 -0.01661985 -0.19905531 -0.18305078
-0.020702293 -0.0012648457 0.15553309 -0.068381935 0.0032940404 -0.12425345 -0.19305153 -0.07143707
-0.07229273 0.1435909 -0.087893 -0.061437864 -0.02622014 -0.1081408 0.002006867 0.0122273
0.009130075 -0.19414635 -0.09517225 0.35400563 -0.04409906 0.062380772 0.0039698826 0.12403597
-0.1101404 0.1354459 -0.10554729 0.02042888 0.10550814 -0.0015726247 -0.040344648 0.18293235
0.1196821 -0.10622058 -0.13521941 0.061191667 -0.20950817 -0.28065336 0.12393179 0.024910761
0.16835806 -0.12302338 -0.08070026 0.22966632 0.034592174 0.03361769 -0.27608857 0.12273669
0.34403372 -0.4347009 0.006252271 -0.06124467 0.09573469 0.54319435 0.30251223 0.21403387
-0.20379832 -0.17426546 -0.05943321 0.014998606 0.24102521 0.010567852 -0.06900929 0.29605114
-0.27922165 0.08151749 0.09993602 0.065239154 0.009048454 0.033986583 -0.16039659 0.03622912
0.017233787 0.26220787 -0.04493426 -0.13217361 -0.17901687 0.14043778 -0.024158673 0.04039092
-0.03932246 -0.004708925 -0.19335218 0.015204587 -0.11250104 -0.14701591 0.15792722 0.29281345
-0.21923755 0.05216783 -0.01072781 -0.052705444 0.10734358 -0.04591878 -0.02968636 -0.06373643
2.210808e-05 -0.09687643 0.028644938 0.04071676 -0.0821847 0.01805031 -0.030946238 -0.03901424
-0.029037502 -0.004700152 -0.0058359914 -0.056486588 -0.017922914 0.0065260744 -0.101134785 0.067427725
0.051589098 -0.023824258 -0.023808055 0.04485665 -0.08726267 -0.10353901 -0.105204776 -0.031337827
-0.09081326 0.051796354 -0.01022507 0.059919894 -0.044649262 -0.03876243 -0.035157185 -0.040099375
0.040299293 -0.07759071 -0.090808734 0.041382365 0.025333768 0.021997532 0.02387095 0.053576063
-0.08165838 0.026428988 -0.041298434 -0.069410324 -0.10558786 -0.030434433 -0.09522142 -0.08208752
-0.020924915 0.04087251 0.011838458 -0.017909475 -0.09175431 -0.09194603 0.016586784 -0.12731512
-0.03725074 0.044709373 0.056855183 -0.0056439512 -0.03281033 -0.0894071 0.062178295 0.049214527
-0.023723384 -0.034468226 -0.021645438 0.058472555 -0.09261793 -0.009481678 0.0251781 0.009612624
-0.0005466077 0.030088495 0.015562109 -0.002934966 -0.11369203 -0.08449282 0.04944029 0.030593598
-0.10296038 0.044944633 -0.028317804 -0.07249276 -0.028782098 -0.07301953 -0.068451926 -0.10288362
-0.07216482 -0.027753394 -0.10514947 0.03734025 0.03229033 -0.010510676 -0.08176854 -0.09076954
-0.013885465 0.014261757 0.047198165 0.035279986 -0.016284434 0.03572805 0.011903926 0.0584855
0.048982173 -0.05277242 0.061317436 -0.06591282 -0.015226165 0.004630279 0.05663649 -0.086297594
-0.016475089 -0.06969394 -0.046021644 -0.067794524 -0.095358886 -0.08928574 0.072126284 -0.0009412613
0.040311474 -0.06038923 -0.078025095 -0.02246731 0.056362692 0.059683695 -0.10136777 -0.0046892436
00000000: 03f4 d1bd d76c da3e cea2 4abd e69c 42be
00000010: 639e 2d3c 7351 bd3e 7b6f 323e de2b 513c
00000020: c94e 3a3d 7592 7ebd c92a cf3e aa37 883e
00000030: aa89 b6bd 4331 b33c a903 efbd cf2d ef3e
00000040: 4d53 863c cad5 03be 3381 04bd 8b34 44bd
00000050: ae81 c0bd c453 183e 0560 263f 8273 d93e
00000060: 8cc1 bbbd 49fa 67be ada1 d93d c031 04be
00000070: f0ee 23be 5a26 88bc 28d5 4bbe aa71 3bbe
00000080: db97 a9bc 2ec9 a5ba 1144 1f3e d40b 8cbd
00000090: d4e0 573b 9878 febd 4daf 45be 994d 92bd
000000a0: 360e 94bd 7e09 133e 3f01 b4bd 45a6 7bbd
000000b0: 9ecb d6bc ec78 ddbd a485 033b 0355 483c
000000c0: 4f96 153c 4dce 46be abe9 c2bd 3a40 b53e
000000d0: 37a1 34bd fb82 7f3d ca15 823b 9206 fe3d
000000e0: 4a91 e1bd 54b2 0a3e 2d29 d8bd 775a a73c
000000f0: a714 d83d 8720 ceba 6e40 25bd 9e52 3b3e
00000100: e41b f53d 2d8a d9bd f576 0abe 1da4 7a3d
00000110: 4f89 56be ccb1 8fbe f3cf fd3d a711 cc3c
00000120: 0e66 2c3e aff3 fbbd 2e46 a5bd a62d 6b3e
00000130: 86b0 0d3d b4b2 093d 7b5b 8dbe 605d fb3d
00000140: 3025 b03e 1e91 debe dadf cc3b b1db 7abd
00000150: 8d10 c43d c90e 0b3f e2e2 9a3e b22b 5b3e
00000160: 82b0 50be a572 32be 3d70 73bd b7bc 753c
00000170: 50cf 763e c924 2d3c be54 8dbd 0494 973e
00000180: 24f6 8ebe a4f2 a63d 42ab cc3d 1b9c 853d
00000190: f83f 143c 8435 0b3d 013f 24be fc64 143d
000001a0: df2d 8d3c 1c40 863e fd0c 38bd 8558 07be
000001b0: 3350 37be ecce 0f3e 69e8 c5bc f370 253d
000001c0: 9610 21bd 534d 9abb 1dfe 45be a91c 793c
000001d0: f266 e6bd 578b 16be acb7 213e a5eb 953e
000001e0: cf7f 60be efad 553d b2c3 2fbc aae1 57bd
000001f0: f3d6 db3d 5515 3cbd cf30 f3bc 3f88 82bd
00000200: be74 b937 2667 c6bd caa8 ea3c 9ec6 263d
00000210: 7450 a8bd 3ede 933c f782 fdbc 65cd 1fbd
00000220: 0ee0 edbc bc03 9abb d83b bfbb 7b5e 67bd
00000230: 13d3 92bc aed8 d53b c11f cfbd 8c17 8a3d
00000240: 174f 533d 172b c3bc 1c09 c3bc 9bbb 373d
00000250: c5b6 b2bd 430c d4bd 9a75 d7bd 185c 00bd
00000260: 4dfc b9bd 6a28 543d 0d87 27bc 906e 753d
00000270: 25e2 36bd 5bc5 1ebd fb00 10bd 3e3f 24bd
00000280: df10 253d e1e7 9ebd eef9 b9bd 8e80 293d
00000290: c388 cf3c 2b34 b43c 038d c33c 9372 5b3d
000002a0: 823c a7bd 9b81 d83c 8c28 29bd 0027 8ebd
000002b0: 733e d8bd a251 f9bc 7303 c3bd 801d a8bd
000002c0: ba6a abbc ef69 273d 17f6 413c e4b6 92bc
000002d0: afe9 bbbd 334e bcbd 02e1 873c e55e 02be
000002e0: 3b94 18bd 2d21 373d fbe0 683d e5f0 b8bb
000002f0: 2064 06bd 121b b7bd abae 7e3d 2c95 493d
00000300: 8b57 c2bc 8e2e 0dbd c651 b1bc eb80 6f3d
00000310: 78ae bdbd 0a59 1bbc 4e42 ce3c 447e 1d3c
00000320: 394a 0fba 267c f63c 37f8 7e3c 8f58 40bb
00000330: 5ed7 e8bd 920a adbd e781 4a3d 6d9f fa3c
00000340: e4dc d2bd dd17 383d bdfa e7bc 1677 94bd
00000350: 6fc8 ebbc 438b 95bd 8630 8cbd a6b4 d2bd
00000360: 26cb 93bd 165b e3bc 9b58 d7bd 17f2 183d
00000370: dd42 043d f834 2cbc 4476 a7bd 61e5 b9bd
00000380: dd7f 63bc 25aa 693c dd52 413d bf81 103d
00000390: ef66 85bc 9357 123d af08 433c 7e8e 6f3d
000003a0: 88a1 483d e527 58bd fe27 7b3d 4dfd 86bd
000003b0: 2a77 79bc 98b9 973b aafb 673d cbbc b0bd
000003c0: c4f6 86bc b2bb 8ebd 3181 3cbd dbd7 8abd
000003d0: 854b c3bd 71db b6bd f2b6 933d fabe 76ba
000003e0: a51d 253d b25a 77bd 9fcb 9fbd 5d0d b8bc
000003f0: 91dc 663d e476 743d e899 cfbd 3aa8 99bb

linear2.bias f4 [79]
-0.018911729 -0.0855096 0.03650137 0.12724502 0.14332193 -0.029072719 0.00081642426 0.09117473
-0.0055467356 0.051171627 -0.09324305 -0.067181535 0.0028892106 -0.11240897 -0.034952756 -0.020596264
-0.09383277 -0.01699887 -0.09883416 -0.053041488 0.01551458 0.037855573 0.08245178 0.058395207
0.1404339 0.07485455 0.11236735 -0.040081654 0.022142528 0.08905382 -0.08944268 0.01532358
0.01692191 -0.042805187 0.060787853 -0.0073291003 -0.04744011 0.0359806 0.10278436 0.056809176
-0.08949967 -0.078933544 -0.060166743 0.05342612 -0.045077384 -0.102396704 -0.00830589 -0.05317341
-0.022737203 -0.10564947 0.04681913 -0.083385944 -0.12717506 -0.019977532 -0.07083072 0.050635334
-0.055925336 0.04792469 -0.11948374 -0.12181868 0.014528513 0.05695536 -0.03196444 0.03746
0.053914823 -0.013815004 0.055167485 0.0715002 -0.07327039 0.019890849 -0.04358774 0.001344955
0.013969291 0.064157225 -0.013058986 -0.050699312 -0.063652046 -0.04684489 0.015409537
00000000: c5ec 9abc a81f afbd 7682 153d 854c 023e
00000010: fcc2 123e e929 eebc 4e05 563a d1b9 ba3d
00000020: 64c1 b5bb 5799 513d 36f6 bebd 7996 89bd
00000030: e958 3d3b ad36 e6bd 9f2a 0fbd 7fb9 a8bc
00000040: 652b c0bd 3741 8bbc 9069 cabd 0842 59bd
00000050: dd30 7e3c 720e 1b3d 7bdc a83d d02f 6f3d
00000060: e7cd 0f3e 584d 993d da20 e63d a92c 24bd
00000070: 3f64 b53c d961 b63d b92d b7bd c10f 7b3c
00000080: d19f 8a3c 7e54 2fbd affc 783d f328 f0bb
00000090: 9050 42bd 6560 133d 9b80 d23d bdb0 683d
000000a0: 9a4b b7bd e9a7 a1bd 6771 76bd 59d5 5a3d
000000b0: 10a3 38bd 5db5 d1bd 6d15 08bc 5dcc 59bd
000000c0: 5f43 babc c05e d8bd 6bc5 3f3d 40c6 aabd
000000d0: 2e3a 02be eca7 a3bc b20f 91bd ff66 4f3d
000000e0: f711 65bd ae4c 443d e4b3 f4bd 127c f9bd
000000f0: 0009 6e3c 064a 693d 25ed 02bd a86f 193d
00000100: cad5 5c3d 5458 62bc 4df7 613d b26e 923d
00000110: c90e 96bd 22f2 a23c 0f89 32bd 3349 b03a
00000120: 74df 643c dd64 833d 5bf5 55bc 15aa 4fbd
00000130: 015c 82bd 6de0 3fbd 4878 7c3c
