FoundationalModels/4gram.pth (torch, 67002 bytes, 5 tensors)

embeddings.weight f4 [79, 10]
00000000: c409 bebe 9df1 973e 4c5e b33f 97c4 8bbf
00000010: d5d5 95bf f71a 253f 7d4b 763f 0f9b 12bf
00000020: edf2 debf 21da ed3f eda0 02c0 cd23 29c0
00000030: 8927 0d3e ea1b 76be be94 d7be 7a2b 2c3c
00000040: aadc f63e 1c22 a3bf 257a ac3f 5dba a8bf
00000050: 6d2e 93bf 8bdd 4bbe 146a bbbf 96b7 60bf
00000060: 6c12 163f 88f8 fe3f 8876 27c0 2fe6 08bf
00000070: 82f0 693f 35d8 09bf 3ecd 103f 3714 40c0
00000080: 1a17 293f bee5 85be 28f6 133e 070f 9abe
00000090: e60f 453f b798 453f d1dd 6b3f e11f 813f
000000a0: fa23 023f dbce 403f 4132 02c0 bee5 1340
000000b0: 0443 1ebf 0e20 2c3f 5831 1abf 7817 94be
000000c0: 8fa4 0fc0 90a6 6f3f 95b9 9fbe 0bdb ae3f
000000d0: 42ad e23e b042 0bbf 975c b73d bc06 d2be
000000e0: 221b 59bf 7d6a 96bf f72e 803f 85f5 0ebe
000000f0: 8eb0 803f 81aa a43e b97f e6be 1a51 9ebe
00000100: b1af d0bf 8562 84bf 21f4 acbe 8085 59bf
00000110: 3dc3 b23f 3603 773e 3ea0 213c 8f70 d2bf
00000120: 0744 fbbf cd7e 8e3e 7cb2 3ebf 2564 90be
00000130: b576 11c0 50a9 d53e 4e15 d93e 159f 41bf
00000140: 3927 2abf edb8 483e d44a 633f 1414 dcbe
00000150: 1927 993e 4241 cd3e 0abe 89bf e12a d23e
00000160: 414a 23bf 70bd 6ac0 0ea7 c23e 7079 5d3e
00000170: 1567 513f 1998 7c3c 90a7 9dbf 8de1 83be
00000180: 1d8a d03f 8905 d8bf 8ff0 62bf 5b37 993d
00000190: 9cd6 f93f bb0a 96be 7072 9b3f 7484 eabd
000001a0: 222b 973f e68b 043e 0540 9cbf e9fe d63e
000001b0: 75fc 743f 4152 c1bf 268f 0d3e 6983 4cbf
000001c0: fb3a e1be f49e 953f 9434 a33e 278c 053e
000001d0: 7f20 383f fbaa c0bf c635 8f3f cede cdbf
000001e0: 0f7d 353e 7cb2 fabe 1cb2 923f f4b0 3f3f
000001f0: 059c d73d ff3b 35bf 12ca aebe e9c1 9e3f
00000200: b9f5 ce3f 3a4a 86be 03b3 323f c071 5f3e
00000210: 41f4 53be b31d 4abf efdb 8fbf 8e7c 2d3d
00000220: 9643 7bbf 21f9 c4bf b551 d43e ed9c b33e
00000230: bd59 103e f782 64be 8ffb 2c3d a890 0940
00000240: ff96 36bf d8a2 e53e 9e16 75bf 461d 4bbe
00000250: 02c8 1dbd 2f1b 62bd 6bbf 9d3e 35e5 82bf
00000260: 4d5c 4abf 8f75 89be 8769 f13c 1beb 8fbf
00000270: 6b9c 19c0 94c2 4b3f e3ba 5e3e e834 01bf
00000280: 1c94 0a40 7c29 a63e 481a 963f a05b abbe
00000290: 5cac b03d 19ef 8bbf d3c3 503d c528 5a3e
000002a0: dc7f 65bf 0384 d6bd 30e2 7bbe c0ce 913f
000002b0: 59a2 e2be 0359 1cbf 8820 1dbe 5c93 ccbf
000002c0: 3a26 713f 859e 1240 57b8 983e df9b 1c3d
000002d0: bf9c c3be b8ad 29bf fc53 923e 52bf 993e
000002e0: cb5f 96bc ac28 29be bbf7 b5bf 7b2a f6bf
000002f0: c26b 8d3f 06bf 01bd 0895 0640 8c2d 2fbf
00000300: d340 a93e 2ae2 2e3e b716 df3f 5fee 00c0
00000310: 8df7 bbbf 47fb 3d3f a712 f03e b6d2 423e
00000320: a602 69bf 6069 04bf e050 cdbe 4623 fe3e
00000330: d621 f13e 391e 9b3f 83c2 b73e 0757 263f
00000340: e016 963f 9090 5bbf 4b51 f93d 82c4 733e
00000350: 1362 913f 93bb c0bf 1b6b d73e 958d b3bf
00000360: b3dd 34be 9c62 693f f372 a0be 33b4 ee3e
00000370: ba78 02bf 2120 d03d e106 c83e b3c1 c63f
00000380: 4f12 2c3f 6b9f 063f 8a12 69bf cb0f 1bbf
00000390: 4342 69bf 9870 19be 760d cabe 4e86 27bf
000003a0: 99a8 ba3f b1d2 0b3e 4d53 38bf 2176 77bf
000003b0: ebde 373e 99bf d3be 4bd5 423f 111d 61be
000003c0: 0fac 823f 4a2c 7cbf c1bd 383f a9af ebbc
000003d0: f58c 023e 8ddc 23bf 4d22 bdbf 21fe 893e
000003e0: c667 afbf 0a4b 11c0 0492 f63e b0ae 983e
000003f0: 2f82 46bf 96e3 6abd 10ce 89bf c955 3f3f
-0.37116826 0.29676524 1.4013152 -1.091937 -1.1705881 0.6449427 0.96208936 -0.5726785
-1.7417885 1.8582193 -2.0410721 -2.64281 0.13784613 -0.24034086 -0.4210567 0.0105084125
0.48215228 -1.2744784 1.3474776 -1.3181874 -1.1498543 -0.1990873 -1.4641747 -0.8778013
0.5862186 1.9919596 -2.6166096 -0.5347623 0.9138261 -0.5384553 0.56563175 -3.0012338
0.66050875 -0.26151842 0.1444937 -0.3008959 0.76977384 0.7718615 0.9213534 1.0087854
0.50836146 0.75315636 -2.0343173 2.3108974 -0.6182101 0.6723641 -0.6023154 -0.28924155
-2.2444189 0.9361353 -0.31196275 1.3660597 0.4427281 -0.5439863 0.08953207 -0.41020763
-0.84807026 -1.1751248 1.0014333 -0.13960846 1.005388 0.32161334 -0.4501932 -0.3092125
-1.6303617 -1.0342566 -0.33780006 -0.8496933 1.3965832 0.24122319 0.009864865 -1.64406
-1.9630135 0.27831116 -0.74491096 -0.28201404 -2.2728703 0.41730738 0.42399067 -0.75633365
-0.664661 0.19601794 0.88786054 -0.42984068 0.29912642 0.4008885 -1.076112 0.4104834
-0.6378518 -3.6678123 0.38018078 0.21628356 0.81797916 0.015417122 -1.2316761 -0.2575802
1.6292149 -1.6876689 -0.88648313 0.07481261 1.9518619 -0.29305062 1.2144299 -0.11451045
1.1810038 0.12943992 -1.2207037 0.41991356 0.9569772 -1.5103227 0.13824138 -0.79888016
-0.4399031 1.1689134 0.3187605 0.13041745 0.71924585 -1.5052179 1.1188285 -1.608362
0.17723487 -0.48964298 1.1460605 0.74879384 0.10527805 -0.7079467 -0.34138542 1.2402927
1.6168739 -0.26228505 0.698044 0.21820736 -0.20698644 -0.7895157 -1.1238993 0.042355113
-0.9815 -1.5388528 0.41468588 0.35080662 0.14096732 -0.22315584 0.042232092 2.149454
-0.7132415 0.44850802 -0.95737636 -0.19835386 -0.03852082 -0.055201706 0.30810103 -1.0226198
-0.7904709 -0.26847503 0.029469265 -1.1243623 -2.400172 0.7959378 0.21750979 -0.50471354
2.1652899 0.32453525 1.172677 -0.33468342 0.08626625 -1.0932342 0.050968003 0.21304615
-0.8964822 -0.10474398 -0.24598002 1.139122 -0.44264486 -0.6107332 -0.15344441 -1.598247
0.94198954 2.2909253 0.2982814 0.038234588 -0.38205525 -0.662807 0.285797 0.30028778
-0.018356225 -0.16519421 -1.4216226 -1.9231714 1.104851 -0.031676315 2.1028461 -0.68428874
0.3305727 0.17078462 1.7428807 -2.014549 -1.4684922 0.74211544 0.4688923 0.19025692
-0.91019666 -0.5172329 -0.40100765 0.49636286 0.47096127 1.2118598 0.35890588 0.64976543
1.1725731 -0.8576746 0.121737085 0.2380543 1.1358055 -1.5057243 0.42073902 -1.4027582
-0.17662697 0.9116609 -0.313377 0.46621856 -0.50965464 0.10162378 0.39067748 1.5527862
0.67215437 0.52587 -0.91043913 -0.60570973 -0.9111673 -0.14984357 -0.39463395 -0.6543931
1.4582702 0.13654591 -0.72002107 -0.96664625 0.1795613 -0.41357115 0.7610671 -0.21983744
1.0208758 -0.9850508 0.7216454 -0.028770285 0.12749083 -0.6400841 -1.4776093 0.26951697
-1.3703544 -2.270205 0.48158276 0.29820776 -0.77542394 -0.05734595 -1.076601 0.7474027

linear1.weight f4 [128, 40]
00000000: 4701 adbd 0206 d5bd cfb0 68be 96c0 283e
00000010: eb45 123d 7390 ce3d fac5 8dbd 0db0 01be
00000020: 674c 09bc 1a3e 7e3d f7ed ad3d c4b1 91bd
00000030: 9bcc 7abe 8938 913e eded f33d a938 67bc
00000040: ddfc b03d 293c 9bbd 0f49 debc 3cff debc
00000050: 0ad1 88bd ee7b 00be 02f3 bfbd 4b52 8c3d
00000060: 5149 813c 0440 69be 14c5 33be e232 80bb
00000070: d9a6 4ebe f067 013e d845 56bd 1f8f a03c
00000080: a43f 783d 025c 473c 543f 16be 03ab 3ebd
00000090: 7152 2bbe 3109 8dbd e188 f13d e318 9fbe
000000a0: 2e2b 0e3c eafe 0bbe 16ad 6a3e b313 c8bd
000000b0: 55f2 31be 101e e2bd b4cb 843d a903 17be
000000c0: c4d3 84bd f9f8 203e 61e4 15bd 11e9 05be
000000d0: 107e a83d 90dc 19bd ccbd e53d 1cc6 a2bd
000000e0: 9425 5f3d 0a1d 183e f30a 1dbe b9d2 02be
000000f0: 305c 1b3d a6f6 1bbe 8837 2a3e ec7f dfbd
00000100: 3b1f 013e 396e d33d 8a96 71bd dd98 78bd
00000110: 35bd cebd 979a 293e b268 673e fe53 64be
00000120: dbd7 5b3e ac82 283d d748 273e efd9 58be
00000130: 6caf 28bc 13e3 2abd 034a 2e3d 42a5 a13d
00000140: f07d 8ebd f1ae 5d3e 2d68 553e 122d c3bd
00000150: b6b4 19be b693 5a3d 5dd8 2e3e 98e0 d73d
00000160: 1ece e7bd 7f0b d8bd e5e8 f23d 5a5b 56be
00000170: 230e 6abd 6d18 b6bd c272 6c3a bb2e ad3d
00000180: 372e 3b3e 8e77 453e c8bb 823d caa5 4fbd
00000190: ee05 bb3c 0c61 9d3d 8b7b 3e3d 4cf2 ca3d
000001a0: a67f 73bd 5aeb c4bd b7aa 3f3d 6ef3 01be
000001b0: 0b49 86bd 51f9 20bc 9c33 4d3e 55fd 69be
000001c0: 28b0 ec3d 2491 b3bd ee40 e43d a155 c13d
000001d0: 60bb 913d 5af9 7e3d 61dc 0c3e 118c 4cbd
000001e0: 3f46 50be 4508 39bb fc0a 1c3e a7ab 01be
000001f0: a3c3 27bd 85be 953d 2c5b 26be 6008 b13b
00000200: 2228 a4bd a345 69be 23b7 1b3e 1f0d 1abe
00000210: 023a 313e 2256 043e 64ca c63d e10e 4fbe
00000220: 6240 813c bd47 1b3c 60d2 a93d 9d9a 0abe
00000230: fa4d e83d 07ff 033e 82d4 1b3e 66cc 8bbc
00000240: 7da1 593e 99fc 35bd dc53 07be d0d2 8fbd
00000250: e80d 49be 772b dcbd c8d6 62be 520f 4f3c
00000260: 594f 253e bcf7 e1bd c212 193e 227a c8bc
00000270: 651b 073e cc60 8c3e 2753 fabd 85e3 cebb
00000280: 03c1 13be 0594 bc3d 5045 dbbd 148f 56be
00000290: f087 90bc d675 dcbc 4028 3bbd 86fc 08bd
000002a0: 48a7 14bc 8a9b f33d 59e9 953d ddcd 0a3e
000002b0: 8044 a73d aed4 913d 449a dd3d b10d 343e
000002c0: 4a08 583c 1296 46bc 6cb8 53bc 19d6 a53d
000002d0: 0888 253e c72d 43be 5104 95bd a24e 6cbe
000002e0: 1445 053d f1f8 e23d 028c b73c ca1d c23c
000002f0: 0508 003e 9093 dd3d d58c a23d 574d 553e
00000300: 1915 84bd 1662 5a3d 9f51 e13d 7b66 e1bd
00000310: af5a 8fbd a7fe 21be bb7c e63d 3ba0 f0bd
00000320: 4ac7 a9bd 6eb0 8ebd 17a2 dd3d 83f3 e13d
00000330: c730 433d 49d2 743e ae99 4cbe c3c0 30be
00000340: 51f2 c23d 7ffa f7bd 87d8 14bc ca04 4bbe
00000350: d1b8 9bbe ce3d fb3d 6363 413e 05c6 4c3e
00000360: 38b2 f2bd 44cb ba3b 7e73 893d dbca 113d
00000370: 0f0f 313c e8cd 863d fec7 84be 0ad9 153e
00000380: 0f67 2abe 6bfb afbd fec8 f7bd 78be a73d
00000390: 7eb6 f5bc 01a0 073e d00f f73d a47a 7ebc
000003a0: f217 43be 2133 bf3d b520 08bd f0b4 1fbe
000003b0: b429 3a3e 0a9f 47be e984 e83d 8008 393e
000003c0: 267f 10be d304 10be 0494 a5bd aa04 16bc
000003d0: 1ff1 48bc ac39 4a3e d00b 53be 9d84 013d
000003e0: 9b8b 73be 491b c33d d8c0 133d 37ad 433d
000003f0: 4559 8a3d 5ee4 ad3d 12dd efbd 447c 38be
-0.08447509 -0.104015365 -0.22723697 0.16479716 0.03571121 0.10086145 -0.06922527 -0.12664814
-0.008380032 0.062070943 0.08492654 -0.07113984 -0.24492113 0.28363445 0.11910615 -0.01411263
0.0864198 -0.07579834 -0.027134446 -0.027221315 -0.06680496 -0.12547275 -0.09372522 0.06851634
0.01578203 -0.22778326 -0.17555648 -0.0039123157 -0.20180835 0.12637305 -0.052312702 0.019599495
0.060607567 0.0121679325 -0.14672595 -0.04654981 -0.16730668 -0.06886519 0.11793686 -0.31073675
0.008677287 -0.13671461 0.2291759 -0.09769382 -0.17377599 -0.1104089 0.06484166 -0.1474749
-0.064857036 0.15719976 -0.036594752 -0.13077189 0.082271695 -0.03756386 0.112178415 -0.079479426
0.054479197 0.14854828 -0.15336208 -0.12775697 0.037929714 -0.15230808 0.16622746 -0.10913071
0.1260957 0.10323758 -0.058981456 -0.060692657 -0.10094682 0.16562878 0.22598532 -0.22297665
0.21469061 0.041140243 0.1633638 -0.21176885 -0.01029573 -0.04172046 0.04255105 0.078928486
-0.069576144 0.21648766 0.20840521 -0.09530081 -0.15010342 0.053363524 0.17074724 0.10540885
-0.113186106 -0.10549068 0.11860827 -0.20933285 -0.057142388 -0.088913776 0.0009019786 0.08456179
0.18279348 0.19283888 0.06383473 -0.05069522 0.022829976 0.07684526 0.04650454 0.09909496
-0.059447907 -0.09615202 0.046793666 -0.12690517 -0.065569006 -0.009825067 0.20039219 -0.22850545
0.11557037 -0.08767918 0.11145197 0.094401605 0.07115817 0.06224952 0.13755943 -0.049938265
-0.20339297 -0.0028233689 0.15238565 -0.12663136 -0.040958058 0.07311729 -0.16245717 0.0054026097
-0.08015467 -0.2278047 0.1520658 -0.15044068 0.17307284 0.12923482 0.09706572 -0.2022052
0.01577777 0.009477553 0.08292079 -0.13535543 0.11342998 0.12890254 0.15217784 -0.017065238
0.21253009 -0.04443035 -0.13215584 -0.07022631 -0.19634211 -0.10750478 -0.22152245 0.01263793
0.1614355 -0.1103358 0.14948562 -0.0244723 0.13194044 0.274176 -0.12222891 -0.0063137435
-0.14429097 0.0920792 -0.1070658 -0.20953017 -0.017642945 -0.026911657 -0.045692682 -0.03344395
-0.009073086 0.11894901 0.07319898 0.13555093 0.08167362 0.071206436 0.108204395 0.17583348
0.01318557 -0.0121207405 -0.012922388 0.080974765 0.16165173 -0.19060431 -0.07276214 -0.23076871
0.03253658 0.11082638 0.022405628 0.023695845 0.12503059 0.10819161 0.07937018 0.20830284
-0.064493366 0.0533162 0.11001896 -0.11005875 -0.069997184 -0.15819798 0.11254259 -0.117493115
-0.082899645 -0.06967245 0.10821932 0.11032774 0.04765394 0.23908342 -0.19980499 -0.17261033
0.095188744 -0.12108325 -0.009084827 -0.19826046 -0.3041444 0.12267648 0.1888557 0.19997413
-0.11850399 0.0057005007 0.067114815 0.03559385 0.010806813 0.06582242 -0.25933832 0.14633575
-0.16640876 -0.08592876 -0.12098883 0.08190626 -0.029994246 0.1324463 0.12063563 -0.0155321695
-0.19052103 0.09335924 -0.033234317 -0.15596366 0.18179971 -0.19494262 0.113534756 0.18069649
-0.14111003 -0.1406434 -0.08084872 -0.009156385 -0.012264519 0.19748563 -0.20609975 0.03162061
-0.23783724 0.095266886 0.036072582 0.047772612 0.06755308 0.08490823 -0.11712088 -0.18016154

linear1.bias f4 [128]
00000000: 2d30 2b3e 2e72 a5bc 01d7 98bd 2aa2 183e
00000010: 9a48 1d3d 6b37 85bd 7e9b 3e3e 9e14 5d3d
00000020: 1e2b 6b3e 4ef0 3a3e 8ab1 863e 394c 1c3e
00000030: 6b51 5c3e 9f6d 253e facd c53d 5fb0 313e
00000040: 5fe2 e23d c476 533e 69bb a03e de60 e73d
00000050: 54c5 043e 4eae fb3d e443 a63d c927 df3c
00000060: e551 4cbd a30e 353e 1f2e 313d 2eaa 353e
00000070: ccb8 3d3e 395c e63d 3a2b c1bd c5ad a63d
00000080: 9e0b 3c3d 75d7 083e 6974 153e feca 913d
00000090: c509 823d 03c9 563e 89b4 d9bb 10cf bb3c
000000a0: 39de 423e bc03 773e 266e b33d 14c5 223e
000000b0: 2f14 0c3e afc6 0e3d f26e 023e be43 79bd
000000c0: 3c3b e83d 0624 483e de37 883e 4942 443e
000000d0: 253b ff3d a675 a63c 82bb a43d 8159 3b3e
000000e0: 060b d63d 6194 4f3e ef2f 89bc 58b1 583e
000000f0: c741 303e 04c0 fc3d c930 bc3d 6d80 653c
00000100: 9da8 523e 78f7 7a3e e7cc 473e 8f97 1c3e
00000110: a1d5 213d ce09 76bd 78eb 513e e169 673e
00000120: 1253 9d3c 1921 6d3e 92a1 833d 5803 e2bb
00000130: 4509 abbc b9ec e83d 9805 f0bd 1c74 b9bc
00000140: 6e7c a6bd 618f 20bd fc4f 0f3e dcde 04bd
00000150: bf26 8e3e 7f0b 0c3e 3a4e cf3d ca94 1a3e
00000160: 481f 773e 4fff b23d ed7d 5f3e 2e55 153e
00000170: 2f6d 9fbd c262 e63b 59c6 573e 8706 b93d
00000180: 09f1 5e3d 8644 3bbc 607d 9a3e 0790 98bd
00000190: adfe 5e3b 34e9 a6bd 6a0f 1d3e 6d21 993d
000001a0: 78e8 6d3e 430c 023e cbb3 f63d f48a 643d
000001b0: 7850 7ebd dd49 163e 55f0 3e3e 61cd 543e
000001c0: 4515 943d 2a38 433e b32b 0b3d 13aa 513e
000001d0: 7ff4 4e3e 3d38 9fbd f0f7 febc 10a5 b43e
000001e0: 6026 2e3d 1599 9abd e346 d1bd 188e 503d
000001f0: fbb5 553e 1301 7a3d 1ac1 a93e e97f edbd
0.16717596 -0.020196047 -0.07462884 0.1490561 0.038399316 -0.06504711 0.18614003 0.05397474
0.22965667 0.18255731 0.26307327 0.15263452 0.21515433 0.16155098 0.096584275 0.17352436
0.11078333 0.20650774 0.31392983 0.11297773 0.129659 0.12289105 0.08118418 0.02724065
-0.04988279 0.17681365 0.043256875 0.177407 0.18527526 0.11248059 -0.09432073 0.08138613
0.045909517 0.1336344 0.14595188 0.07118796 0.0634952 0.20975117 -0.006643836 0.022925884
0.19030084 0.24122518 0.087612435 0.15895492 0.13679574 0.03485745 0.12737635 -0.06085562
0.11339423 0.19544992 0.26605123 0.19165911 0.12462453 0.020319771 0.08043577 0.18295862
0.10451321 0.20271446 -0.01674649 0.21161401 0.17212592 0.123413116 0.091889925 0.01400767
0.20572133 0.24508464 0.19511758 0.1529219 0.039510373 -0.060067944 0.2049998 0.22598983
0.01920465 0.23157157 0.064273015 -0.0068973713 -0.020878443 0.11373276 -0.11719817 -0.022638373
-0.08129202 -0.039199237 0.13995355 -0.032439098 0.27763936 0.1367626 0.101223424 0.15095821
0.24133027 0.087401025 0.2182538 0.14583275 -0.07784497 0.007030816 0.21071757 0.09034448
0.054429088 -0.0114299115 0.3017378 -0.07449346 0.003402631 -0.08149949 0.15337911 0.074770786
0.23233211 0.1269999 0.120460115 0.05579658 -0.06208846 0.14676614 0.18646367 0.20781471
0.07230619 0.19064394 0.03397722 0.20475034 0.20210455 -0.077743985 -0.031124085 0.35282183
0.042517066 -0.07548729 -0.10218599 0.05091676 0.20870201 0.06103618 0.33155137 -0.115966626

linear2.weight f4 [79, 128]
00000000: b546 9d3d 1089 293e 3492 933e d14a 8bbd
00000010: fa5e d7bd f62f 69bd 674b 743d 6dc0 853e
00000020: 4f54 7abd 1c0a 893e 850d 713e 4c49 4d3d
00000030: 221c ac3d 4e0f cbbc e2c4 283e c99a fbbb
00000040: e9a2 70bd 78f9 30be de24 f3bc 1ddb d13e
00000050: 77bf f5bd b9a1 c6bd 9710 32be 7536 a53b
00000060: 6da5 3bbe 4694 a8be eebf d2bd 1b4b fa3e
00000070: 2f6a 01be 7d1d 88be 4c3c 8ebd 3e8d d7bc
00000080: fae6 83bd 5f35 763e d1e6 1a3e 7d7b 02be
00000090: 5558 e93c bcb7 86bc f446 b93c 4275 103e
000000a0: 4dde b5bd f20f e33d b6b7 243c e968 18be
000000b0: 9511 113f 3471 933d 314b 663e 0c5d 6abe
000000c0: b496 f03c 9b9d 16bd 9c7d a9bc 96ed 7abe
000000d0: c513 003d c69d 66be 6ea4 83bd dbd1 683e
000000e0: 574f 513d 979c 113a 71f9 233e 8b93 03bc
000000f0: f866 953e d84f bfbd 5aa9 033e 7180 d9bc
00000100: 613a 2b3e 8e04 c33d c60d 083d 5e24 9dbd
00000110: 995e a23c 0d62 6b3e 04e1 1bbe caf5 53be
00000120: dd2c b03d 5441 bf3d 6f43 933e 3060 d13c
00000130: 0239 893d bdab 81be 5661 263e e8be 21bd
00000140: 9f27 c13d 792e e43b bdc7 923d 7ca8 3c3d
00000150: d463 a9bd c0d1 8fbe 1200 923e 9541 5e3e
00000160: fd5e 50be 7bb5 f6bd 5291 9fbb 1b89 eb3d
00000170: f26b 31bd ee60 9c3e c443 82be d251 b1bd
00000180: ce9e 50be ae6f 3e3e e6f9 f53e 729a 5c3d
00000190: 4c50 debd 0a15 283e ce63 093d 4709 12be
000001a0: 1b52 893e 19e7 1dbe 9526 9a3e 4f21 ecbd
000001b0: 11b2 4fbd e3c8 ac3d c51a 5c3e 699d 1d3e
000001c0: 2263 4bbc ec65 963e bd65 4fbe f2c6 c3bd
000001d0: 232a ec3e b95e b03d 0bb2 323c 80d0 0ebe
000001e0: 9934 0ebe 7b56 98bd 564a 9f3e 5780 2a3d
000001f0: b617 223d 961e 133e 864b 823d 0849 28be
00000200: 2cc3 773d ea55 1cba 25ee 273b 77a0 453d
00000210: a775 293d 4571 5c3b 7b4c 483d 3ca8 a5bd
00000220: 15f6 89bd 3795 41bd 12c9 8bbd d400 213d
00000230: 718d b2bd 674c 0ebd a8e4 023c 9404 323c
00000240: 57cc 8cbd 32c7 83bd 00e1 34bd d4b4 c73c
00000250: 2248 edbb cf71 a8bd e3c5 abbd d351 dbbd
00000260: 8e75 2fbd fadd b7bd 0b32 c0bd 3836 16bd
00000270: e6c2 a33c 1a6e 90bd 18c2 9e3d e6ac 253d
00000280: 1744 3abd 4da1 813c 282d aa3c 0c19 c3bd
00000290: 5ff5 2cbd e07f 24bc 36e6 99bc 5ca3 993b
000002a0: b1f4 9dbd 6a2b ac3c fb79 82bd 84c9 41b8
000002b0: 4b30 403c 9336 89bb a28a 4d3d a65d 0b3d
000002c0: b006 a4bd 0fdc 713d bd2f 2dbd dd89 18bd
000002d0: df3c 023d 5b71 c5bd 513a 013d 5959 683c
000002e0: 505b 32bc 0937 38bd 7823 523d eb92 a2bd
000002f0: e84c d93c 2ec3 2cbd 892b 37bd ad2e a1bd
00000300: 20d6 623d 5a82 1d3c 38ec 653b 6f14 c4bd
00000310: 2704 d33b 8866 05bd c2f6 02bc 6004 66bd
00000320: db62 81bd 52c9 0ebd d242 adbb 0754 61bd
00000330: a13e 523d de2c b9bd f44f 91bd 9531 fcbc
00000340: 7293 2fbd 6d4d 7dbd cb9d 43bd 7cf8 c1bd
00000350: df1b 90bd 8b7b 51bd b573 a3bd cbff a6bd
00000360: 4482 84bd 33e7 20bd 9fa6 a9bd 4f48 7e3d
00000370: b22d 02bc a588 47bb 4303 e63c 840b 2f3d
00000380: 1e21 ec3c 7e88 c2bd 99b0 87bd 705d 8dbd
00000390: c9ef 863d 4785 333c 1f18 3f3b 0b4b 6abb
000003a0: a0fe 9fbd 887d 9ebd 7fd7 c9bd 8d11 8fbd
000003b0: cdcc 39bd 79ea 953b 4aa1 a038 dcc3 4bbd
000003c0: 0691 8a3d 5552 c7bd cf0c bfbc dd88 2fbd
000003d0: f529 88bd a022 d23c 765a dfbb 9b4f d6bd
000003e0: b760 3c3d 5403 b7bd d5fd 3ebd 1fa1 2f3d
000003f0: 5888 0f3d 56b6 b6bc 3a0e 32bb b4e1 9bbd
0.07679502 0.16556191 0.28822482 -0.068013795 -0.10516162 -0.056930505 0.05964222 0.26123372
-0.06111556 0.26765525 0.23540314 0.05011873 0.084038034 -0.024787571 0.16481355 -0.007678364
-0.058749113 -0.17282665 -0.029680666 0.40987483 -0.1199941 -0.09698815 -0.17389141 0.005041892
-0.18324824 -0.32925624 -0.10290514 0.48885426 -0.12638162 -0.26584998 -0.069450945 -0.026312467
-0.0644054 0.24043797 0.15127112 -0.1274242 0.028484503 -0.016445033 0.02261684 0.1410723
-0.08880291 0.11087026 0.010053566 -0.1488377 0.56667453 0.07199326 0.22489621 -0.22887057
0.029368736 -0.036771398 -0.020689778 -0.24504694 0.031268854 -0.22521123 -0.06427847 0.22736304
0.051101055 0.0005554645 0.16013123 -0.008030782 0.2918012 -0.09341401 0.12857571 -0.026550503
0.16721489 0.09522353 0.03321626 -0.07672952 0.019820498 0.22986622 -0.15222555 -0.2069923
0.08602307 0.09338632 0.28762385 0.025558561 0.067003265 -0.25326338 0.16248068 -0.039488703
0.09431385 0.006963548 0.07167003 0.046059117 -0.08270994 -0.28089714 0.2851568 0.21704705
-0.20348735 -0.120463334 -0.0048696185 0.1150076 -0.043315835 0.305427 -0.25442326 -0.08658184
-0.20373079 0.1859729 0.4804222 0.053858228 -0.10855159 0.16414276 0.033542447 -0.14261352
0.26820454 -0.15420188 0.3010756 -0.115297906 -0.050706927 0.084367536 0.21494587 0.15392078
-0.012413772 0.29374635 -0.20253654 -0.0955943 0.46125898 0.08611817 0.010906707 -0.13946724
-0.13887252 -0.0743837 0.311114 0.0416263 0.039573394 0.14367136 0.06362061 -0.16434109
0.060488865 -0.000596373 0.0025624123 0.048248734 0.041371968 0.003363685 0.048901062 -0.08088729
-0.067363895 -0.047261443 -0.068254605 0.03930743 -0.08718384 -0.03474083 0.007989086 0.010865349
-0.06874912 -0.06434478 -0.04415989 0.024378218 -0.007241265 -0.08224832 -0.08387353 -0.10708966
-0.04283672 -0.089778855 -0.09384545 -0.0366728 0.019990396 -0.0705225 0.07751864 0.040448092
-0.04547509 0.015823985 0.020773485 -0.09526262 -0.04222619 -0.010040253 -0.018786531 0.0046886634
-0.07712687 0.021016795 -0.06370922 -4.620246e-05 0.011730264 -0.004187414 0.05018104 0.034024857
-0.08009088 0.059047755 -0.042281855 -0.03724085 0.031796332 -0.096407615 0.031549755 0.014181458
-0.010886028 -0.04497436 0.051303357 -0.07938179 0.02652593 -0.042178325 -0.044719253 -0.07870231
0.055379987 0.009613598 0.0035083424 -0.0957421 0.006439704 -0.032568485 -0.007993402 -0.056156516
-0.06317683 -0.034859963 -0.0052875066 -0.055011775 0.05132926 -0.09041761 -0.07095328 -0.030785361
-0.042865224 -0.061841417 -0.047757905 -0.09471223 -0.07036566 -0.05114321 -0.07981054 -0.081542574
-0.06470159 -0.03928299 -0.082837336 0.062080678 -0.007945465 -0.0030446437 0.028077727 0.04273559
0.028824385 -0.0949869 -0.0662548 -0.069025874 0.06588704 0.010957069 0.0029158664 -0.0035750296
-0.07812238 -0.07738787 -0.09855556 -0.069857694 -0.04536133 0.0045750705 7.659437e-05 -0.049747333
0.06765942 -0.097325005 -0.023321537 -0.042855132 -0.06648628 0.025651276 -0.0068162037 -0.10464402
0.045990672 -0.08936182 -0.04662879 0.042878266 0.035042137 -0.022303741 -0.0027169124 -0.07611409

linear2.bias f4 [79]
00000000: 358b 70bd d953 64bb e593 343b 0382 9abc
00000010: b3e5 d83d 65de c43d e97f d2bd 2452 1ebd
00000020: 9364 d63d 56cc 9a3c 022d f7bc 3ebb 1abe
00000030: 793a 713d 67aa e6bc 1583 d5bd 56e1 d8bd
00000040: 9453 aebd 868c b03b cfc0 313b e87d 2abd
00000050: 763d 4f3d 747d 0bbd ecb0 003e df1e 4e3d
00000060: bda7 85bd caaf 103d cefc e3bb 6e3f 9e3d
00000070: 7a98 d9bc 2f0a 19bd 8b72 483d f1bc 7fbd
00000080: 7073 27bd ad07 4a3d 9de8 823d 7451 a93d
00000090: 2cb8 a03d 2df2 fdbc db89 41bd f8c3 133e
000000a0: cc4c 2b3e a89a d4bd 5c71 89bd f646 10bd
000000b0: 18a9 14be 5676 bfbd 6a78 33bb 31d1 f13d
000000c0: ce99 443b f03a 50bc a1ba 5c3d a766 49bd
000000d0: f0f2 f9bd a232 fa3c e4d0 b5bc cb68 b43d
000000e0: 4d66 f7bc 89b9 f03d b68b 4c3c 569f e6bc
000000f0: 0a2f 8dbd 0d0a e03d 5d9e 8bbd 3c87 49bd
00000100: cbfb 593d 0aa0 c83d b86c 7bbc 4955 43bd
00000110: 6b76 91bd 1929 0dbd 5e99 84bd 5ec0 933a
00000120: c324 27bc d59a 283d 22b4 b4bd 0e05 3a3d
00000130: 733d bc3d 9ef9 f5bc d139 89bd
-0.05872651 -0.0034840016 0.0027553972 -0.018860823 0.10590687 0.09612731 -0.10278303 -0.038652554
0.10468402 0.018896263 -0.030172829 -0.1511049 0.058893654 -0.028157426 -0.104253925 -0.105898544
-0.08512035 0.0053878454 0.002712298 -0.04162398 0.050595723 -0.03405519 0.1256749 0.05032241
-0.06526134 0.035323896 -0.006957627 0.07726942 -0.026561964 -0.037363227 0.04893736 -0.062436048
-0.040881574 0.049323726 0.06392024 0.08267489 0.07847628 -0.030999267 -0.04725061 0.14430225
0.16728514 -0.10381061 -0.06711075 -0.035223924 -0.14517629 -0.09348743 -0.0027385005 0.11807478
0.0029998901 -0.012709364 0.05388892 -0.049170163 -0.1220454 0.030541722 -0.022194333 0.0880905
-0.030200148 0.11754138 0.012484482 -0.02815215 -0.068937376 0.10939417 -0.06817315 -0.049201235
0.053218644 0.0979615 -0.015345745 -0.047688756 -0.071026646 -0.034463022 -0.06474565 0.001127254
-0.010201636 0.041163284 -0.0882342 0.045414977 0.09191408 -0.030026253 -0.06700481
