FoundationalModels/8gram.pth (torch, 87482 bytes, 5 tensors)

embeddings.weight f4 [79, 10]
0.7587027 -0.90687203 0.34143478 -1.6904129 -0.6730289 -1.1560754 1.6871862 0.2852768
-0.8968464 0.06723758 1.5977881 -0.107735984 1.4650904 0.80123633 -1.3397046 1.2203287
0.5216648 -0.23698337 1.3396711 -0.8652237 1.5018976 0.38371196 0.7037607 0.39122722
0.035423685 -0.023245312 1.1169475 -0.30762133 0.21101072 -0.7599941 0.33068308 -1.0122974
0.08057614 -0.8344138 -0.51291275 -0.086224 1.1214569 -0.59615195 -0.46912408 -0.30299813
1.0588067 -0.06353976 1.2393886 0.9396179 -0.24168873 0.20006292 1.4516313 1.813069
-0.119328015 1.0326136 -1.091883 -0.0022860751 0.6624303 -1.393043 -1.0584356 0.5034719
0.06497818 -0.77378166 0.53993917 -0.17465176 0.7127584 0.27015367 0.1014453 -0.28326306
0.5706947 0.88677675 1.4546432 -0.90986806 -0.81500936 -1.4723763 0.18735282 0.45004353
-0.8997108 1.5023595 -0.6477279 1.6019777 -0.5765077 0.52510905 1.7095808 -2.058193
-2.0550473 0.43297607 -1.4044759 -1.121322 -1.6344528 -0.7976128 -0.38947186 0.74167055
-0.13075547 -0.03975809 -0.098083094 1.3291863 -1.5109293 2.0301008 1.7970692 0.8828718
-1.0924644 -0.33154237 -0.8616832 -1.6270111 1.6216207 0.6184423 -0.3959445 -1.458077
0.82305384 0.4869767 2.6600952 0.79532313 -0.15771562 0.9606008 1.2684977 0.2619279
0.86084116 0.09357226 -0.38458294 0.65182173 -0.097574055 -0.41261363 -0.65928227 1.0504954
-0.17900182 1.3265914 -0.31358808 2.1104648 -1.7263808 -0.1315735 -2.4204304 -0.63480604
1.0426393 -1.1376925 -0.6504882 -0.326802 0.5887138 0.12628596 2.4891057 1.0056248
-1.7716409 0.48609778 -1.2132294 -2.186272 0.17725047 0.09766065 -1.1255856 0.8591502
-1.9444484 0.5693048 -1.1837264 -0.80633074 0.3827913 0.64135855 -0.900513 0.07484722
1.6260486 0.19274001 0.60732865 1.0094057 0.9584455 -0.8606283 0.95538974 -0.6137941
0.491833 -1.0839131 -0.12541193 0.5094921 0.035666607 -0.014545363 0.5800048 1.0116477
0.046726607 -1.1084327 0.09939972 1.1827488 1.087463 -0.36689252 -0.46719512 1.3983989
0.9115938 -0.9669723 1.0449075 0.041314263 -1.2827448 0.5733746 -1.2925075 -0.22390392
1.3874996 0.4381702 1.1482669 -1.6543744 -0.33345515 0.1954255 0.13930884 -0.63434696
-0.12564234 0.68261 -0.2572476 -0.022194728 -0.47016862 -0.36767215 -0.2304045 1.3556474
-0.057998054 -0.1634924 0.6547106 -0.7620896 -1.3662988 0.081586055 -1.8162081 0.13967119
-0.43308282 -0.065148935 0.282179 1.2202405 1.1424713 0.6542819 -2.5680344 1.0837933
-0.7782548 0.17578378 -0.0035528 1.8683823 0.15527353 0.31826678 1.3900385 -0.31699932
-1.1564466 -1.2465692 -0.00731874 0.03496364 -1.4673314 2.1757412 -0.3888644 -1.5693014
-1.7235832 -1.1630006 0.12664159 0.1548018 1.7783219 -0.8583666 -0.5511106 -0.20521964
1.833219 1.8103324 1.7083216 -0.183579 1.4936522 -0.35644898 -0.25290564 1.0374627
1.5287594 -0.60540956 -0.119199336 -0.5477547 -1.2508359 -0.050280824 -0.38119712 1.1273032
00000000: 573a 423f c428 68bf 8ad0 ae3e 735f d8bf
00000010: 9f4b 2cbf 47fa 93bf b8f5 d73f cd0f 923e
00000020: ba97 65bf dbb3 893d 5284 cc3f afa4 dcbd
00000030: 1588 bb3f d31d 4d3f 717b abbf bb33 9c3f
00000040: d38b 053f c5ab 72be 587a ab3f 4d7f 5dbf
00000050: 2e3e c03f e575 c43e a929 343f ef4e c83e
00000060: 6d18 113d f46c bebc 23f8 8e3f 8b80 9dbe
00000070: 3213 583e f98e 42bf 4b4f a93e f692 81bf
00000080: 1a05 a53d 259c 55bf 404e 03bf 3596 b0bd
00000090: e68b 8f3f 6a9d 18bf 0831 f0be 9222 9bbe
000000a0: fa86 873f 2221 82bd 49a4 9e3f cc8a 703f
000000b0: 407d 77be 4bdd 4c3e 0ecf b93f a512 e83f
000000c0: 3f62 f4bd af2c 843f d2c2 8bbf fad1 15bb
000000d0: 0895 293f 3c4f b2bf d17a 87bf 89e3 003f
000000e0: 4813 853d 8e16 46bf 7439 0a3f e9d7 32be
000000f0: 5677 363f 9551 8a3e 8ec2 cf3d db07 91be
00000100: 0c19 123f cd03 633f c031 ba3f 1ded 68bf
00000110: 74a4 50bf d476 bcbf 6bd9 3f3e 1b6c e63e
00000120: 7253 66bf 514d c03f 7fd1 25bf 9b0d cd3f
00000130: 0296 13bf 8c6d 063f 8bd3 da3f 6fb9 03c0
00000140: e585 03c0 0aaf dd3e dec5 b3bf 7b87 8fbf
00000150: c035 d1bf 5a30 4cbf db68 c7be 1fde 3d3f
00000160: c3e4 05be 61d9 22bd cadf c8bd c722 aa3f
00000170: 2266 c1bf 2ced 0140 5d06 e63f e303 623f
00000180: e0d5 8bbf ecbf a9be 4597 5cbf e641 d0bf
00000190: 4491 cf3f 3c52 1e3f 3db9 cabe 44a2 babf
000001a0: a8b3 523f 0355 f93e 003f 2a40 4c9a 4b3f
000001b0: 3480 21be efe9 753f 225e a23f 6a1b 863e
000001c0: 1660 5c3f d0a2 bf3d 0ee8 c4be cadd 263f
000001d0: e8d4 c7bd 1842 d3be b9c6 28bf a276 863f
000001e0: 414c 37be bfcd a93f 9e8e a0be db11 0740
000001f0: 0cfa dcbf 34bb 06be 55e8 1ac0 a682 22bf
00000200: 3475 853f e89f 91bf 6586 26bf 9752 a7be
00000210: f3b5 163f 1b51 013e 824d 1f40 50b8 803f
00000220: 21c5 e2bf cfe1 f83e 1a4b 9bbf e1eb 0bc0
00000230: 2681 353e 4f02 c83d 3013 90bf 44f1 5b3f
00000240: afe3 f8bf f6bd 113f 5984 97bf b16b 4ebf
00000250: 39fd c33e 1330 243f 0588 66bf 8049 993d
00000260: 5c22 d03f a35d 453e e479 1b3f 3534 813f
00000270: af5c 753f 2352 5cbf 6c94 743f 9c21 1dbf
00000280: 89d1 fb3e aabd 8abf fc6b 00be 136e 023f
00000290: 2617 123d ad4f 6ebc 327b 143f ac7d 813f
000002a0: 6664 3f3d 1fe1 8dbf 1592 cb3d 5064 973f
000002b0: fd31 8b3f 56d9 bbbe 3334 efbe bcfe b23f
000002c0: 365e 693f 7f8b 77bf 87bf 853f 2539 293d
000002d0: fb30 a4bf aec8 123f e370 a5bf 1247 65be
000002e0: 9699 b13f d857 e03e 69fa 923f 8ac2 d3bf
000002f0: a2ba aabe 9f1d 483e faa6 0e3e 9064 22bf
00000300: 63a8 00be 87bf 2e3f f5b5 83be b8d1 b5bc
00000310: f1b9 f0be 863f bcbe 28ef 6bbe db85 ad3f
00000320: 5e8f 6dbd 8d6a 27be 1d9b 273f 4e18 43bf
00000330: e1e2 aebf 9716 a73d 8279 e8bf f705 0f3e
00000340: 08bd ddbe ce6c 85bd c479 903e d730 9c3f
00000350: 803c 923f 057f 273f ad5a 24c0 bdb9 8a3f
00000360: b53b 47bf aa00 343e 18d6 68bb 2727 ef3f
00000370: 0600 1f3e ddf3 a23e c8ec b13f bc4d a2be
00000380: 7106 94bf 948f 9fbf 0ad2 efbb 0936 0f3d
00000390: 84d1 bbbf 583f 0b40 3c19 c7be dede c8bf
000003a0: 609e dcbf 34dd 94bf 55ae 013e 5d84 1e3e
000003b0: 0da0 e33f eabd 5bbf 9615 0dbf 1925 52be
000003c0: eca6 ea3f f9b8 e73f 48aa da3f 22fc 3bbe
000003d0: ff2f bf3f 7b80 b6be d97c 81be 94cb 843f
000003e0: 63ae c33f 1ffc 1abf c81e f4bd a739 0cbf
000003f0: 641b a0bf 44f3 4dbd 452c c3be 794b 903f

linear1.weight f4 [128, 80]
0.0022607706 0.082541436 -0.10226847 0.0228082 -0.02542809 -0.029031776 0.018377544 -0.034620147
0.14366956 0.05292986 0.07957158 0.097164385 0.0003333493 0.05989044 -0.19318022 0.060057886
-0.09164701 0.023732645 0.026045918 -0.119856834 0.10005209 0.054307155 0.15169646 -0.039453637
0.027767878 -0.093037754 0.022474729 0.035284404 0.029260393 -0.08159793 -0.09080018 -0.01750084
0.065945536 -0.03544838 -0.085044764 0.07532645 0.110727236 -0.036457457 0.05624171 -0.062614575
-0.002619008 -0.048553485 0.039627407 0.019757254 -0.008090312 0.107703015 0.04986361 0.08855987
0.04823907 0.08519224 0.088853315 -0.0331644 -0.014687338 0.10659194 -0.06533507 -0.045646198
-0.084916115 0.01340497 0.043503743 -0.014356065 0.058528192 -0.043854427 0.0026504577 0.062226832
-0.13120702 0.15695947 -0.112857044 0.020144023 0.0392602 -0.0007230693 -0.09909204 -0.05430624
-0.010999082 -0.035795256 0.10269547 0.04120555 -0.04869766 0.04880651 0.13178878 0.009498958
0.008171579 -0.15026562 -0.0053500817 -0.10824331 0.027096968 -0.17747231 0.0051600398 -0.09560722
-0.13290614 -0.0073990677 -0.055909257 -0.08762632 0.044501025 -0.076502495 -0.058673102 -0.05710071
-0.020892877 -0.13005504 -0.017249234 0.051370382 0.11642437 -0.034581155 -0.023912769 0.039660174
0.027554099 -0.024365455 -0.0025671932 -0.067459196 0.025683086 -0.13876323 -0.016348323 0.0483713
-0.027951315 0.13770361 0.08438175 0.09025812 -0.07635337 0.07733056 0.118040405 -0.11618002
0.11817688 -0.074504845 0.04160536 -0.14714414 0.027985202 -0.15550867 0.20110348 -0.06537335
-0.029129738 0.10650374 -0.038486928 -0.041359335 0.05273606 0.02709126 0.06822833 -0.021027429
0.1500155 0.01658446 -0.10020849 0.09723981 0.044572365 -0.108818315 0.015441585 -0.094131924
0.053429984 -0.034227647 0.23654644 0.11401773 0.060335692 -0.0004416486 0.11497442 -0.0097122835
0.08192728 -0.015668215 0.020289235 -0.14371601 0.15498623 -0.051268592 -0.036853466 0.0413851
0.020974595 -0.072754145 0.078671284 -0.20487207 0.05080911 -0.00812125 0.03506517 -0.07032648
-0.0408626 -0.1036797 -0.062361605 -0.07669674 -0.10233629 0.07776833 -0.046517123 0.047112964
0.02603573 0.025585746 -0.0327713 -0.07791992 -0.019663624 -0.11049151 -0.06724575 -0.018880136
-0.12533961 -0.11486365 0.09577168 -0.11563874 0.103750594 -0.06661662 0.14801133 0.10843816
-0.12222944 0.04300808 0.085227154 -0.04202672 0.1100009 0.030653542 -0.02308747 -0.086234435
0.08154142 0.09459412 0.027375558 -0.028279858 0.01998018 3.3756947e-05 -0.0013436438 0.090610236
-0.1485562 -0.027275005 0.08232107 -0.011263291 0.03655859 -0.10173919 0.09079789 -0.05835085
0.15737005 0.12814538 0.12107843 0.032864105 -0.1923856 0.124011375 0.03810382 0.055343375
0.11094844 0.14906238 -0.1481815 -0.11856197 -0.056897238 -0.18310867 -0.08704657 -0.019754946
-0.059506066 -0.022322498 0.18298806 0.109481096 0.045129247 0.020363245 0.10153621 -0.053407304
-0.09237328 0.13227613 0.103312455 0.10970297 -0.04203233 0.1464299 0.027481815 -0.08800101
-0.10611416 -0.014826483 0.012308788 0.09279308 -0.08301784 -0.074317284 -0.014145952 0.12899342
00000000: 7029 143b 7c0b a93d 2272 d1bd 43d8 ba3c
00000010: 924e d0bc 0cd4 edbc 818c 963c dbcd 0dbd
00000020: 1d1e 133e fbcc 583d 6df6 a23d 1ffe c63d
00000030: 63c5 ae39 ae4f 753d 09d1 45be 42ff 753d
00000040: 6db1 bbbd f76a c23c 405e d53c 8077 f5bd
00000050: 1ce8 cc3d 2e71 5e3d 5156 1b3e 239a 21bd
00000060: 7679 e33c 948a bebd ec1c b83c 6186 103d
00000070: 7eb3 ef3c d11c a7bd 72f5 b9bd ec5d 8fbc
00000080: 740e 873d 5232 11bd f32b aebd c144 9a3d
00000090: f6c4 e23d 6a54 15bd b55d 663d 123c 80bd
000000a0: aaa3 2bbb 05e0 46bd 5950 223d f7d9 a13c
000000b0: 3a8d 04bc 6693 dc3d c93d 4c3d e15e b53d
000000c0: 5596 453d 4579 ae3d baf8 b53d 65d7 07bd
000000d0: 29a3 70bc e04c da3d 65ce 85bd 82f7 3abd
000000e0: 80e8 adbd 85a0 5b3c fb30 323d b335 6bbc
000000f0: 42bb 6f3d b3a0 33bd 4db3 2d3b 90e1 7e3d
00000100: 225b 06be fcb9 203e 9821 e7bd 1405 a53c
00000110: 4ecf 203d 5c8c 3dba c4f0 cabd 3870 5ebd
00000120: 7e35 34bc 0c9e 12bd 0152 d23d 27c7 283d
00000130: 3377 47bd 56e9 473d a3f3 063e 84a1 1b3c
00000140: 16e2 053c 3bdf 19be bd4f afbb abae ddbd
00000150: 76fa dd3c 4dbb 35be 8d15 a93b b8cd c3bd
00000160: 8c18 08be e173 f2bb 1b01 65bd 6e75 b3bd
00000170: b546 363d 57ad 9cbd 3553 70bd 6fe2 69bd
00000180: 8a27 abbc 262d 05be 444e 8dbc c069 523d
00000190: e66f ee3d f8a4 0dbd b6e4 c3bc b572 223d
000001a0: 22b9 e13c 109a c7bc 5b3e 28bb 0c28 8abd
000001b0: 5665 d23c f317 0ebe ebec 85bc fc20 463d
000001c0: 28fa e4bc 2d02 0d3e 57d0 ac3d 40d9 b83d
000001d0: 285f 9cbd 7c5f 9e3d 2bbf f13d caef edbd
000001e0: b806 f23d ff95 98bd 626a 2a3d f4ac 16be
000001f0: 3941 e53c aa3d 1fbe 12ee 4d3e 77e2 85bd
00000200: 7da1 eebc a21e da3d 78a4 1dbd 6868 29bd
00000210: c401 583d 7dee dd3c 4bbb 8b3d b741 acbc
00000220: aa9d 193e 22dc 873c 1c3a cdbd aa25 c73d
00000230: 8391 363d 23dc debd b4fe 7c3c 3dc8 c0bd
00000240: 66d9 5a3d 4a32 0cbd 3b39 723e 2182 e93d
00000250: 8f22 773d 128d e7b9 b577 eb3d 4520 1fbc
00000260: 7dc9 a73d a15a 80bc 9c35 a63c 4a2a 13be
00000270: b6b4 1e3e 04ff 51bd a9f3 16bd 6c83 293d
00000280: ead2 ab3c 2000 95bd 691e a13d fcc9 51be
00000290: 371d 503d fe0e 05bc 7fa0 0f3d 5407 90bd
000002a0: 8b5f 27bd 0656 d4bd e26e 7fbd 2e13 9dbd
000002b0: b095 d1bd 0145 9f3d bd88 3ebd 86f9 403d
000002c0: e248 d53c 3399 d13c 333b 06bd 7b94 9fbd
000002d0: 9c15 a1bc 5f49 e2bd 24b8 89bd 84aa 9abc
000002e0: 0759 00be a23d ebbd f123 c43d 01d4 ecbd
000002f0: 317b d43d 4b6e 88bd 4890 173e d314 de3d
00000300: 6e53 fabd 3e29 303d 938b ae3d 3624 2cbd
00000310: 2748 e13d 231d fb3c ef21 bdbc ae9b b0bd
00000320: 30ff a63d 90ba c13d b542 e03c 29ab e7bc
00000330: 79ad a33c 3f96 0d38 341d b0ba dc91 b93d
00000340: 1e1f 18be d56f dfbc f397 a83d ab89 38bc
00000350: 76be 153d a35c d0bd 3ff4 b93d 4d01 6fbd
00000360: 9d25 213e 8b38 033e f8f7 f73d 839c 063d
00000370: bb00 45be adf9 fd3d c012 1c3d bcaf 623d
00000380: f038 e33d cfa3 183e e4bc 17be 9ed0 f2bd
00000390: 140d 69bd d780 3bbe 7945 b2bd 20d5 a1bc
000003a0: a2bc 73bd acdd b6bc 3961 3b3e a037 e03d
000003b0: 72d9 383d d2d0 a63c 37f2 cf3d 9ec1 5abd
000003c0: 342e bdbd 6573 073e 7b95 d33d f3ab e03d
000003d0: 182a 2cbd b8f1 153e 8b21 e13c e039 b4bd
000003e0: 6152 d9bd c7ea 72bc ccaa 493c 4c0a be3d
000003f0: 4205 aabd a933 98bd 6cc4 67bc da16 043e

linear1.bias f4 [128]
-0.072410524 0.084989265 0.087661386 0.023753209 0.10909323 0.07417993 0.17692854 0.14800137
0.11983286 0.14171873 0.21460643 0.025452854 0.028480671 0.1340195 -0.020732408 0.16703565
0.112070665 0.13837068 0.1605512 0.010680079 0.09777249 0.17548679 0.13627535 0.09420355
-0.038628224 0.06444054 -0.029087171 0.16598728 0.07951284 -0.053306818 0.14500977 0.13172273
0.07995154 0.02541145 0.11546979 0.14517199 0.11714739 0.102894016 0.17083313 0.08344448
-0.004749166 0.026483916 0.029102761 0.04252366 0.01496825 0.03134186 0.16016382 0.13325588
0.026443442 0.15645085 0.050336454 -0.05559817 0.10877823 -0.06792221 0.0745695 0.124577366
-0.0062477053 0.20580392 -0.0041064355 0.054999765 0.06483813 -0.010840832 -0.026898736 -0.034052867
0.1424437 0.10368599 0.0005648352 0.11771125 0.12022618 0.10031982 -0.024461452 -0.009295268
0.04945255 0.020275474 0.035408538 0.14865738 0.09529645 0.046621367 0.057257365 0.09450487
-0.05138146 0.057896003 0.051677473 0.1683191 0.009140472 0.16632472 0.15631355 0.094863005
0.15141323 0.030388542 0.0044398247 0.08032628 0.16678263 -0.04797027 0.17605953 0.05472383
0.15853092 0.04081855 0.17465256 0.1379676 -0.023384934 0.16731083 0.026075663 0.12780415
0.12866469 0.060754634 0.057335336 0.024479974 -0.0010627382 -0.054695237 0.05704688 0.009674731
0.028653806 0.07327019 0.094033 -0.019148163 0.018803312 -0.0170931 0.03564227 0.13709834
0.13723113 0.122912884 0.0073193614 0.17057247 0.18868594 0.16300476 0.15957071 -0.0053192438
00000000: f84b 94bd da0e ae3d d087 b33d 1796 c23c
00000010: 456c df3d a6eb 973d c12c 353e ac8d 173e
00000020: ee6a f53d b71e 113e cac1 5b3e 8182 d03c
00000030: 4c50 e93c 683c 093e 03d7 a9bc 650b 2b3e
00000040: 4e85 e53d 0bb1 0d3e 8967 243e 80fb 2e3c
00000050: f13c c83d cfb2 333e c48b 0b3e caed c03d
00000060: a138 1ebd 67f9 833d 3848 eebc 92f8 293e
00000070: a1d7 a23d 4058 5abd 717d 143e 53e2 063e
00000080: a2bd a33d ac2b d03c 6d7b ec3d f7a7 143e
00000090: f9ea ef3d 19ba d23d e1ee 2e3e f1e4 aa3d
000000a0: e49e 9bbb ccf4 d83c ea68 ee3c 4a2d 2e3d
000000b0: 643d 753c 5260 003d fc01 243e 3b74 083e
000000c0: eb9f d83c a734 203e 992d 4e3d e8ba 63bd
000000d0: 1fc7 de3d cd1a 8bbd e5b7 983d 6b22 ff3d
000000e0: 8db9 ccbb 43be 523e 478f 86bb 6f47 613d
000000f0: dac9 843d bf9d 31bc bd5a dcbc 057b 0bbd
00000100: c3dc 113e 5259 d43d 7311 143a 9912 f13d
00000110: 2539 f63d 7a74 cd3d 6263 c8bc 2e4b 18bc
00000120: c28e 4a3d c018 a63c 8b08 113d a439 183e
00000130: c92a c33d 0cf6 3e3d b386 6a3d c58b c13d
00000140: 5e75 52bd 5c24 6d3d c2ab 533d d85b 2c3e
00000150: ebc1 153c 0751 2a3e a910 203e 8947 c23d
00000160: 120c 1b3e 64f1 f83c f37b 913b 1b82 a43d
00000170: 11c9 2a3e 797c 44bd f348 343e 1826 603d
00000180: ee55 223e 5a31 273d 1fd8 323e 6147 0d3e
00000190: c391 bfbc 8853 2b3e a19c d53c 17df 023e
000001a0: adc0 033e dad9 783d 75d8 6a3d 3a8a c83c
000001b0: 944b 8bba 1d08 60bd fda9 693d c382 1e3c
000001c0: 63bb ea3c ae0e 963d 6094 c03d 9cdc 9cbc
000001d0: 6709 9a3c d406 8cbc a1fd 113d 8263 0c3e
000001e0: 5186 0c3e c0b9 fb3d 41d7 ef3b 8daa 2e3e
000001f0: e336 413e b8ea 263e 8166 233e 0d4d aebb

linear2.weight f4 [79, 128]
0.14375576 0.35764024 0.087606676 -0.08682812 -0.080401756 0.018873023 0.034182 -0.049753666
0.008220234 0.048908632 0.14474314 -0.071681716 -0.018752106 0.23075739 0.2100049 0.34929454
0.08482465 0.023019513 0.05977496 0.038470834 -0.029299527 -0.13608849 -0.14010435 0.1554047
0.05759525 -0.0775772 0.043071833 0.117833726 -0.12011691 0.07093652 0.07429591 -0.028288353
-0.02758556 -0.07715312 0.024604343 0.17142716 0.27077374 0.14491726 0.124415405 -0.117096625
-0.03759302 -0.07296305 -0.10385184 0.13484322 -0.059301816 0.15237792 0.0655563 0.085591696
-0.037675854 -0.13515262 0.12975086 -0.13037074 0.15214832 0.047272228 0.1680765 0.022784328
0.0021495968 -0.01783755 -0.09998463 -0.008874585 -0.09416868 0.18672353 0.10016138 -0.11749758
-0.020240834 0.21559958 0.08680995 0.031005519 -0.08672497 0.10342894 -0.08806262 -0.0023817664
-0.092833735 0.15457271 0.12926036 0.14471321 0.034223944 0.33663487 -0.094787836 -0.029871795
0.013475842 0.40915084 0.045776732 -0.2991362 -0.003600799 -0.014568493 0.06707891 0.11418348
-0.065148376 -0.19064012 0.16220397 -0.065998785 0.32864794 -0.11666617 -0.023285365 -0.18734364
-0.033821255 0.020975685 0.3638582 0.1304827 0.13361052 0.16593395 0.49541053 0.13127336
-0.10620773 -0.07060034 0.16180709 -0.0651369 -0.10851882 -0.080120824 -0.10473499 0.20236161
0.21397166 -0.06826761 0.018640056 -0.04456828 -0.03017372 -0.29171196 0.24016334 -0.0399012
0.284817 -0.17358445 0.06626143 -0.062283818 0.24588528 0.0086782975 -0.009028692 0.15484945
0.011752846 -0.04797388 -0.06510075 -0.037301958 -0.00876237 -0.04042845 -0.07928316 0.0679551
0.0017667302 -0.091680236 -0.042040862 -0.005996083 0.037662145 0.034829713 0.053196605 0.019861728
0.059175238 -0.05684718 0.04286932 -0.030871168 -0.102558 0.059680272 0.06636093 -0.06117124
0.08092539 -0.00065053755 -0.08816356 0.019288901 -0.054563016 -0.089998566 -0.033216715 0.062144566
-0.09223153 0.066795304 0.027250405 -0.053276207 -0.041256905 0.004700759 -0.089564145 0.034465387
-0.03176926 0.05668786 0.047928866 -0.057284676 -0.079118066 -0.09800128 -0.06803415 0.0135533335
-0.049537383 -0.04970305 0.04460071 -0.10243623 -0.077118285 0.0062591485 -0.07790583 0.009795599
-0.048293874 -0.0154473195 -0.09589073 -0.08610461 0.0012579315 -0.025806652 -0.067097105 0.008643145
0.06584338 -0.053928494 0.048088104 0.05657479 -0.042446725 -0.09067605 -0.08543072 0.011481905
0.02368247 -0.023735292 -0.0070009865 -0.02184274 -0.037572257 0.034538917 0.06441761 -0.045187887
0.022001542 0.054146297 -0.01500576 -0.0460546 0.060959138 -0.089162625 0.06199266 -0.082448706
0.070781745 0.042202048 -0.053280707 0.019670004 -0.060597718 0.029266868 -0.093416445 0.013834025
0.053229515 -0.07354548 -0.0637351 -0.03744942 -0.029734738 0.03775915 -0.07097594 -0.0030464313
0.017614854 -0.06170533 0.0639458 0.064400606 -0.09669391 -0.056778267 -0.059104163 -0.01639574
-0.06738888 0.02421138 0.071213685 -0.050981984 0.06340952 0.051062774 -0.021887051 0.03251279
-0.09491594 0.011345519 -0.05993837 0.002451386 -0.06294628 0.009180588 0.026611201 0.023345314
00000000: b634 133e 9f1c b73e 216b b33d f1d2 b1bd
00000010: ada9 a4bd 999b 9a3c 6d02 0c3d 80ca 4bbd
00000020: 29ae 063c 6b54 483d 8c37 143e ddcd 92bd
00000030: 049e 99bc aa4b 6c3e 860b 573e bcd6 b23e
00000040: 8cb8 ad3d 6b93 bc3c 97d6 743d 9893 1d3d
00000050: 9005 f0bc c85a 0bbe 8477 0fbe 6922 1f3e
00000060: ffe8 6b3d cce0 9ebd 176c 303d cf52 f13d
00000070: dbff f5bd 2b47 913d 7428 983d fabc e7bc
00000080: 1dfb e1bc 7402 9ebd 0c8f c93c 9a8a 2f3e
00000090: dba2 8a3e 3165 143e 81cd fe3d 5bd0 efbd
000000a0: 23fb 19bd a76d 95bd 46b0 d4bd 5714 0a3e
000000b0: 76e6 72bd f508 1c3e 6242 863d b34a af3d
000000c0: ff51 1abd 7365 0abe 69dd 043e e87f 05be
000000d0: c5cc 1b3e 86a0 413d 3f1c 2c3e 33a6 ba3c
000000e0: 40e0 0c3b 0e20 92bc bec4 ccbd b566 11bc
000000f0: 82db c0bd 7434 3f3e 6921 cd3d 92a2 f0bd
00000100: 1bd0 a5bc 23c6 5c3e 6ac9 b13d 49ff fd3c
00000110: dc9c b1bd 8dd2 d33d 2d5a b4bd 6917 1cbb
00000120: 9d1f bebd 4f48 1e3e d45c 043e b32f 143e
00000130: 682e 0c3d 685b ac3e 2020 c2bd b2b5 f4bc
00000140: c7c9 5c3c 387c d13e 6280 3b3d 6128 99be
00000150: 62fb 6bbb b0b0 6ebc ab60 893d 07d9 e93d
00000160: 836c 85bd 2a37 43be cc18 263e 5f2a 87bd
00000170: 8b44 a83e acee eebd f3c0 bebc 03d7 3fbe
00000180: 2888 0abd 33d5 ab3c 9f4b ba3e 429d 053e
00000190: 32d1 083e 97ea 293e 73a6 fd3e 866c 063e
000001a0: 7083 d9bd e996 90bd c2b0 253e 7f66 85bd
000001b0: 1d3f debd 6316 a4bd 4c7f d6bd e237 4f3e
000001c0: 631b 5b3e e4cf 8bbd 08b3 983c 3b8d 36bd
000001d0: e12e f7bc 455b 95be 61ed 753e 716f 23bd
000001e0: 89d3 913e 1fc0 31be 13b4 873d 511d 7fbd
000001f0: 5ac9 7b3e 6b2f 0e3c 14ed 13bc db90 1e3e
00000200: 028f 403c 4280 44bd 8b53 85bd f0c9 18bd
00000210: 0b90 0fbc 4d98 25bd 365f a2bd 0b2c 8b3d
00000220: a191 e73a d9c2 bbbd 0a33 2cbd ca7a c4bb
00000230: 9f43 1a3d 9aa9 0e3d afe4 593d 10b5 a23c
00000240: bc61 723d 97d8 68bd bd97 2f3d 88e5 fcbc
00000250: ee09 d2bd 4d73 743d 3de8 873d b28e 7abd
00000260: 36bc a53d d688 2aba 198f b4bd c203 9e3c
00000270: 787d 5fbd 2b51 b8bd 400e 08bd 4d8b 7e3d
00000280: e2e3 bcbd facb 883d 3e3c df3c 2738 5abd
00000290: 00fd 28bd d308 9a3b 686d b7bd 942b 0d3d
000002a0: 7c20 02bd 8831 683d 0f51 443d 56a3 6abd
000002b0: a708 a2bd e5b4 c8bd 7d55 8bbd cd0e 5e3c
000002c0: b6e7 4abd 6d95 4bbd 3caf 363d 16ca d1bd
000002d0: 31f0 9dbd 8b19 cd3b 188d 9fbd b87d 203c
000002e0: cccf 45bd c116 7dbc 5c62 c4bd 9d57 b0bd
000002f0: 2de1 a43a 7968 d3bc 356a 89bd fa9b 0d3c
00000300: e5d8 863d 20e4 5cbd 08f8 443d f8ba 673d
00000310: 9edc 2dbd 5db4 b9bd 4df6 aebd 9a1e 3c3c
00000320: bd01 c23c 8470 c2bc 8868 e5bb 8cef b2bc
00000330: 5ee5 19bd ae78 0d3d 61ed 833d ef16 39bd
00000340: 943c b43c 82c8 5d3d b8da 75bc c0a3 3cbd
00000350: 4ab0 793d e59a b6bd 04ec 7d3d deda a8bd
00000360: 05f6 903d 0edc 2c3d df3c 5abd fd22 a13c
00000370: 5035 78bd 12c1 ef3c 1f51 bfbd 1ba8 623c
00000380: 3107 5a3d 039f 96bd 8c87 82bd 9064 19bd
00000390: 4496 f3bc 57a9 1a3d d55b 91bd a3a6 47bb
000003a0: 074d 903c babe 7cbd 04f6 823d 77e4 833d
000003b0: 7507 c6bd 5490 68bd 3517 72bd 5c50 86bc
000003c0: 2e03 8abd f256 c63c 7bd8 913d 7cd2 50bd
000003d0: dadc 813d 3327 513d 794c b3bc 222c 053d
000003e0: 4a63 c2bd 8ee2 393c f081 75bd 6fa7 203b
000003f0: fbe9 80bd 2d6a 163c bcff d93c ac3e bf3c

linear2.bias f4 [79]
0.04585392 -0.021964328 -0.004565817 0.06159512 -0.01886602 0.10724228 0.03951169 0.13750178
0.072160915 0.01706464 -0.04153111 0.006275002 0.033867497 0.10741956 0.03685269 0.029516153
-0.077463284 0.0693318 0.032450512 0.01867058 -0.08278866 0.036008775 0.10112504 0.08843501
0.021684675 0.12952921 -0.0074719577 -0.11434484 0.005232965 0.08476412 0.09364704 0.21400255
0.15843292 -0.08213018 -0.02300137 -0.08342252 0.022066677 0.026289321 0.10111232 -0.04348612
0.033189327 -0.1281987 0.03111487 0.02784092 -0.015474207 -0.03991357 0.11901962 0.0148674445
-0.00055442 -0.004017156 0.07960389 0.031789 -0.033845898 -0.05828871 -0.072013855 -0.026188863
0.026570616 -0.0867011 -0.03308596 -0.044536192 -0.06717362 0.024491545 0.028884202 -0.10473682
-0.034799244 -0.009059563 -0.019925497 -0.03692881 -0.091390215 -0.096498445 -0.043705154 -0.02355909
0.16419521 -0.11386575 -0.015829943 0.015137576 -0.11634657 -0.029418662 -0.0032265438
00000000: 52d1 3b3d 89ee b3bc d99c 95bb 2a4b 7c3d
00000010: e98c 9abc d7a1 db3d 03d7 213d 44cd 0c3e
00000020: 1ac9 933d 25cb 8b3c 861c 2abd 889e cd3b
00000030: a5b8 0a3d c9fe db3d d9f2 163d dccb f13c
00000040: 12a5 9ebd d5fd 8d3d d4ea 043d 0bf3 983c
00000050: 1a8d a9bd f07d 133d a51a cf3d 6a1d b53d
00000060: 0fa4 b13c 4ea3 043e 53d7 f4bb a12d eabd
00000070: 4b79 ab3b d098 ad3d 05ca bf3d 7c23 5b3e
00000080: 3d3c 223e de33 a8bd 5e6d bcbc 6dd9 aabd
00000090: 2dc5 b43c b45c d73c fa13 cf3d 801e 32bd
000000a0: 88f1 073d 8546 03be 9de4 fe3c a412 e43c
000000b0: 8787 7dbc 697c 23bd 8fc0 f33d 9596 733c
000000c0: 7f56 11ba 59a2 83bb 5d07 a33d 2f35 023d
000000d0: ffa1 0abd 24c0 6ebd 007c 93bd 078a d6bc
000000e0: 9faa d93c 5990 b1bd 2585 07bd 956b 36bd
000000f0: 5392 89bd 7ea2 c83c 909e ec3c 4280 d6bd
00000100: a789 0ebd 906e 14bc cc3a a3bc aa42 17bd
00000110: cb2a bbbd faa0 c5bd 2d04 33bd fefe c0bc
00000120: ca22 283e 7232 e9bd ccad 81bc 9803 783c
00000130: 1c47 eebd 68ff f0bc 6c74 53bb
